learnedData.pth (torch, 74999 bytes, 6 tensors)

entry_layer.weight f4 [128, 8]
0	0xbef9aec1	-0.4876614
1	0xbeb30c46	-0.349703
2	0x3eb2457f	0.34818646
3	0xbcc7683b	-0.024341693
4	0xbf0cc8b8	-0.5499377
5	0x3de5d466	0.112221524
6	0x3d6fd84f	0.058555897
7	0xbdaf9b4f	-0.08574545
8	0xbf3dc6d2	-0.741315
9	0xbf8aab0b	-1.0833448
10	0xbc5351b0	-0.012897894
11	0x3e1f8fc2	0.15582183
12	0xbf0356dd	-0.5130442
13	0xbc79e8ee	-0.015253289
14	0x3ea22318	0.316674
15	0x3f057656	0.5213369
16	0x3e7b2434	0.24525529
17	0x3dcd4257	0.10022419
18	0xbd7d61a1	-0.061860684
19	0x3e0ec2b4	0.13941461
20	0xbdad1e11	-0.08453
21	0xbd97176e	-0.07377516
22	0xbe8db97d	-0.2768058
23	0xbd2a3ec0	-0.04156375
24	0xbf13a9e0	-0.57681084
25	0xbf3cfcaf	-0.73823065
26	0x3ea5b397	0.3236358
27	0x3ea9f876	0.33197373
28	0x3e1327f4	0.1437071
29	0xbe149ffb	-0.14514153
30	0x3ea9c987	0.33161566
31	0x3cbff13b	0.023430457
32	0x3d2ffab2	0.04296369
33	0xbf6d20e4	-0.9262831
34	0x3c1f1d5a	0.009711588
35	0xbea52e13	-0.32261714
36	0xbde4deb1	-0.111752875
37	0xbe1a1a52	-0.15049103
38	0x3e9089c1	0.28230098
39	0x3e44ccf3	0.19218807
40	0xbf391798	-0.72301626
41	0xbed9c4bd	-0.42532912
42	0x3e1b39e6	0.15158805
43	0x3e4f95b9	0.20271958
44	0x3bfd5dd5	0.007732133
45	0xbd261393	-0.04054601
46	0x3f077205	0.52908355
47	0xbe6574da	-0.22407857
48	0xbeaec1b4	-0.3413216
49	0x3e075e6a	0.1321961
50	0xbe203b31	-0.1564758
51	0x3ea50915	0.32233492
52	0x3e76c86e	0.24099895
53	0x3e099c2f	0.13438486
54	0xbdd8ffe7	-0.105956845
55	0xbabe39f4	-0.0014513121
56	0xbdb329ba	-0.08748193
57	0x3d97334b	0.0738283
58	0xbe9c2fca	-0.3050521
59	0xbd9297ef	-0.07157885
60	0x3e9f2100	0.31079865
61	0xbe85e42e	-0.2615065
62	0x3efa17b6	0.48846215
63	0xbf2896d1	-0.6585513
64	0x3f1994ce	0.5999268
65	0xbde4b17b	-0.11166664
66	0x3e882c87	0.26596472
67	0xbce5d01d	-0.028053338
68	0x3f247d54	0.64253736
69	0x3f05efe0	0.52319145
70	0xbdac000d	-0.08398447
71	0xbee98316	-0.45607823
72	0xbdc5e4d1	-0.09662784
73	0x3e05ea27	0.13077603
74	0x3daa6e7a	0.08321853
75	0x3e2386a3	0.15969329
76	0x3eaac4ed	0.33353367
77	0x3eb7589f	0.358098
78	0x3d674372	0.056460805
79	0xbd96e397	-0.07367628
80	0xbde13dc4	-0.10998109
81	0xbe884da9	-0.2662175
82	0x3e7b1f99	0.24523772
83	0x3de64043	0.11242726
84	0xbd622cc1	-0.055218462
85	0x3e2063a3	0.15663008
86	0xbeb84987	-0.35993597
87	0x3d83583c	0.06413314
88	0xbe2d3fc7	-0.1691886
89	0xbed45876	-0.4147374
90	0xbf0ed746	-0.5579723
91	0x3f0d4ef3	0.5519859
92	0xbe857da6	-0.26072425
93	0x3d062a0f	0.032754954
94	0xbe69f3e7	-0.22846948
95	0x3dc32588	0.09528643
96	0xbd555791	-0.052085463
97	0xbf058455	-0.5215505
98	0x3ec17805	0.3778688
99	0x3eafd98b	0.3434566
100	0x3e859114	0.26087248
101	0xbd8d5813	-0.069015644
102	0x3c8339e4	0.016018815
103	0x3e678554	0.22609454
104	0xbf36e0de	-0.7143687
105	0xbf0f4db1	-0.5597792
106	0x3eb18db8	0.34678435
107	0x3eff278e	0.49834865
108	0x3d8af83b	0.067856275
109	0xbe19ad01	-0.15007402
110	0xbdc6f7b7	-0.097152166
111	0x3ef9710a	0.48719054
112	0x3dba43b3	0.09094944
113	0xbda3702a	-0.07980378
114	0xbe9e3eb3	-0.3090721
115	0xbd815f38	-0.0631699
116	0x3eb47591	0.35245946
117	0x3e61475f	0.21999882
118	0xbe670875	-0.2256182
119	0xbe9d9e4f	-0.30784842
120	0xbdf34d19	-0.118799396
121	0xbe86a71d	-0.26299372
122	0x3c908127	0.01763971
123	0xbd2ffdd6	-0.042966686
124	0xbcc54ec7	-0.024085416
125	0x3ec9ad34	0.39389956
126	0x3d0d57a9	0.034507427
127	0x3eb47a52	0.35249573
128	0x3cd03dd0	0.0254201
129	0xbf918534	-1.1368775
130	0x3cb3c0fa	0.021942604
131	0xbd4c3a15	-0.04986008
132	0xbe7b4354	-0.24537402
133	0xbe043680	-0.12911415
134	0x3ed5f24e	0.41786426
135	0x3e58e222	0.21180013
136	0x3c74297e	0.014902471
137	0xbf870b3c	-1.0550303
138	0x3e8830ea	0.26599818
139	0x3ad3b21f	0.0016151107
140	0xbed170cc	-0.4090637
141	0xbe2918b0	-0.16513324
142	0xbe59277b	-0.21206467
143	0x3da27b71	0.07933701
144	0x3ec273f4	0.3797909
145	0x3e9074d1	0.28214124
146	0x3e5da27e	0.21644017
147	0x3faff32b	1.3746084
148	0x3e33052e	0.17482445
149	0xbdb46030	-0.08807409
150	0x3d4ef4db	0.05052648
151	0xbe11e370	-0.14246917
152	0x3e5ea35a	0.21742001
153	0xbf2486e1	-0.6426831
154	0xbe07088d	-0.13186856
155	0xbdd9a687	-0.10627466
156	0xbd1b1e42	-0.037870653
157	0x3d168ea4	0.036757126
158	0x3caf866c	0.021426402
159	0xbe919d49	-0.28440312
160	0x3d5dac91	0.05411965
161	0x3ea7ced8	0.32774997
162	0xbe14a469	-0.14515842
163	0xbb238fb0	-0.002495747
164	0x3e848398	0.25881648
165	0x3df42a5a	0.119221404
166	0xbf01805a	-0.50586474
167	0xbeeb11b9	-0.4591196
168	0xbe828ee0	-0.2549963
169	0xbf8e4034	-1.1113343
170	0x3e236e51	0.15960051
171	0xbe04e880	-0.12979317
172	0xbda370b1	-0.079804786
173	0x3ef37772	0.47552067
174	0xbeee82b7	-0.46584103
175	0xbed99789	-0.42498425
176	0xbf4158b1	-0.7552596
177	0x3e6edaa2	0.2332559
178	0x3d9b8c2f	0.07595097
179	0x3ef0834b	0.4697517
180	0x3f1118a4	0.56678224
181	0xbde122f9	-0.10992999
182	0x3f0d97e2	0.5530988
183	0xbe369c01	-0.17832948
184	0xbec1b355	-0.37832132
185	0xbf3feeeb	-0.74973935
186	0xbdcb53c6	-0.09928088
187	0x3e536d7a	0.2064723
188	0x3e3d55df	0.18489788
189	0xbd4472e6	-0.04796114
190	0x3e87f4be	0.2655391
191	0x3e8ae9ee	0.271316
192	0xbec98529	-0.39359406
193	0xbec93385	-0.3929712
194	0xbe5003a4	-0.20313889
195	0xbe47f67b	-0.19527619
196	0x3e469ace	0.19394991
197	0x3e080470	0.13282943
198	0xbd6c3fda	-0.05767808
199	0x3d886cc8	0.066613734
200	0x3e3aa18b	0.18225686
201	0x3e2035ee	0.15645573
202	0xbed2727d	-0.41102973
203	0xbe0f0361	-0.13966133
204	0x3e8055bc	0.2506541
205	0x3e0f4d99	0.13994445
206	0xbe8fbd63	-0.28074178
207	0xbe803d14	-0.250466
208	0xbe50a8c6	-0.20376882
209	0x3ea79195	0.32728258
210	0x3e34d1a4	0.17658097
211	0x3dd54f35	0.10415498
212	0xbdde0a86	-0.10841851
213	0xbece5d95	-0.40305772
214	0xbe04aea6	-0.12957248
215	0x3e9fe8d3	0.31232318
216	0xbe821fd7	-0.25414917
217	0x3db83f52	0.089964524
218	0xbc9ae782	-0.01890922
219	0x3db12753	0.086500786
220	0x3e682272	0.2266939
221	0xbd786819	-0.06064615
222	0x3e004bcf	0.12528919
223	0x3dbb9b36	0.091604635
224	0x3deda00f	0.116027944
225	0xbf7cade4	-0.98702836
226	0x3e0c4064	0.13696438
227	0x3dcca060	0.099915266
228	0x3e9cd989	0.30634716
229	0x3ec3d737	0.38250133
230	0x3e998f9f	0.29992387
231	0x3dc3906d	0.095490314
232	0xbf41f2d5	-0.7576116
233	0xbe44aee8	-0.19207346
234	0xbe847d90	-0.25877047
235	0x3ed08fa0	0.40734577
236	0x3c877c83	0.016538864
237	0xbefa445f	-0.48880288
238	0xbd8bf70b	-0.06834229
239	0x3d307f43	0.043090116
240	0xbf24e7d4	-0.6441624
241	0xbd24e097	-0.040253248
242	0xbe540708	-0.20705807
243	0x3eb1e241	0.3474293
244	0xbd330e1d	-0.04371463
245	0x3d5696cf	0.052389916
246	0xbf0f9b7f	-0.56096643
247	0xbe844d5f	-0.2584028
248	0xbde137e4	-0.109969884
249	0xbe475cb3	-0.19468956
250	0x3e3df740	0.1855135
251	0xbea52816	-0.32257146
252	0x3d8f3b86	0.06993775
253	0x3dbef504	0.09324077
254	0x3ed5e109	0.4177325
255	0xbece76b7	-0.40324947

entry_layer.bias f4 [128]
0	0x3f1c87db	0.611448
1	0x3f1725cc	0.5904205
2	0xbeb90c60	-0.36142254
3	0x3dd85b65	0.10564307
4	0x3e975840	0.29559517
5	0x3f023af7	0.50871223
6	0xbe5a9f7c	-0.21349901
7	0x3d201957	0.039086666
8	0x3b68b7e0	0.0035509989
9	0x3ebf8559	0.37406424
10	0xbe368e5e	-0.17827746
11	0x3e33818a	0.17529884
12	0x3e09c7da	0.13455144
13	0x3ec36792	0.38164955
14	0xbe9b58cf	-0.30341193
15	0xbb32f674	-0.0027307542
16	0x3f4167a5	0.75548774
17	0x3e6ca393	0.23109274
18	0xbe50cee9	-0.2039143
19	0xbd458fb1	-0.048232738
20	0x3e3314bc	0.17488378
21	0x3eba9f5e	0.36449713
22	0x3f089d7d	0.5336531
23	0x3d9f1ae8	0.07768804
24	0x3ea114c5	0.31461158
25	0xbd18ebd9	-0.037334297
26	0x3c1e64e5	0.00966761
27	0xbf0d1944	-0.5511668
28	0x3e32fd2a	0.17479387
29	0x3e526486	0.20546159
30	0x3eb7c243	0.35890397
31	0x3f1ec434	0.6201813
32	0xbd88d79a	-0.06681748
33	0xbc30035c	-0.010742988
34	0x3ee9101c	0.45520103
35	0xbeb2fbd0	-0.34957743
36	0x3eeddf05	0.46459213
37	0x3e8b0791	0.2715421
38	0xbe63d733	-0.2225006
39	0x3ec926b3	0.39287338
40	0x3ed51c53	0.41623172
41	0x3ea2392b	0.3168424
42	0x3f07e1d4	0.5307896
43	0x3f48b81c	0.7840593
44	0x3e9f5486	0.31119174
45	0xbc629fa8	-0.01383201
46	0xbdac85f7	-0.08423989
47	0x3da45724	0.08024433
48	0xbe7367b6	-0.23770031
49	0x3efdbc44	0.49557698
50	0x3e8e5e01	0.27806094
51	0x3f36f15d	0.7146204
52	0x3d4ee561	0.05051172
53	0xbcdc7c6f	-0.026914803
54	0xbeed0fd5	-0.4630114
55	0x3f19f2f2	0.6013633
56	0x3ead32c0	0.33827782
57	0x3e335aa5	0.17515047
58	0xbf05b4db	-0.5222909
59	0x3f300908	0.6876378
60	0xbea79a77	-0.32735035
61	0x3f0058d8	0.50135565
62	0xbecd6e5b	-0.40123257
63	0x3e4c186b	0.1993119
64	0x3ebabc95	0.36472002
65	0x3f1575d6	0.5838293
66	0xbee49ce7	-0.44650957
67	0x3e7a857c	0.24464983
68	0x3e8577dd	0.2606801
69	0xbe0edc7b	-0.13951294
70	0x3ea7d439	0.327791
71	0x3f2358bb	0.63807267
72	0xbc076117	-0.008262894
73	0x3f1782fc	0.5918424
74	0xbe0ca6de	-0.1373553
75	0xbe1f44e3	-0.15553622
76	0x3f32e412	0.6987926
77	0x3cbfd339	0.023416148
78	0x3e205179	0.1565608
79	0x3f3bbf11	0.7333842
80	0x3f189092	0.59595597
81	0x3e9092d0	0.2823701
82	0x3f2c84de	0.6739024
83	0x3df26ed3	0.11837544
84	0x3ac8a450	0.0015307758
85	0xbc560b8d	-0.013064277
86	0xbecc8508	-0.39945245
87	0xbe8e5e14	-0.2780615
88	0x3e659926	0.22421703
89	0xbe03cd3d	-0.12871261
90	0xbe221b70	-0.15830779
91	0x3e51c229	0.20484222
92	0x3f122a4c	0.5709579
93	0x3edc7487	0.43057653
94	0xbe42014d	-0.18945809
95	0x3d4ddb0e	0.050257735
96	0xbee2d144	-0.44300282
97	0x3f3d057b	0.7383649
98	0x3ecc9957	0.3996074
99	0xbe9405a0	-0.28910542
100	0x3e136ee5	0.14397772
101	0x3e8df576	0.27726334
102	0xbe7e6240	-0.24842167
103	0xbef83572	-0.48478276
104	0x3f0e5b06	0.5560764
105	0xbd894110	-0.06701863
106	0x3e8b2bc1	0.2718182
107	0x3d74050c	0.059575126
108	0x3f290e66	0.66037595
109	0x3d8f87d0	0.07008326
110	0x3d9841e2	0.07434441
111	0xbe02d0b9	-0.12774934
112	0xbe42d3c3	-0.19026093
113	0xbed5f320	-0.41787052
114	0x3cdb71a7	0.026787592
115	0x3f3db6c7	0.7410702
116	0xbd291323	-0.041278016
117	0x3f35e219	0.7104812
118	0x3f316bea	0.6930529
119	0xbe315695	-0.17318185
120	0x3e975760	0.2955885
121	0x3e9d4c71	0.30722383
122	0x3e18612a	0.14880815
123	0x3efc8af8	0.49324775
124	0xbe6d202b	-0.23156802
125	0x3e965618	0.2936256
126	0x3efed4fb	0.49771866
127	0x3e9eed6d	0.31040516

middle_layer.weight f4 [128, 128]
0	0xbd91d887	-0.071213774
1	0xbc360660	-0.011109918
2	0xbd6df774	-0.058097318
3	0xbce7a604	-0.028277405
4	0xbdbb2408	-0.09137732
5	0xbd306b90	-0.04307133
6	0xbdcfa063	-0.10138013
7	0xbc6fa860	-0.014627546
8	0xbccd5e00	-0.025069237
9	0xbd141fa0	-0.036162972
10	0xbd0cf061	-0.03440893
11	0xbd3d4752	-0.046210594
12	0x3d5b0083	0.053467285
13	0xbd4c6e69	-0.049909983
14	0xbd3ac5a3	-0.045598637
15	0xbc822e6b	-0.015891274
16	0xbe385083	-0.17999463
17	0x3d51f3a6	0.051257752
18	0xbda4cfb6	-0.0804743
19	0x3c80752a	0.015680868
20	0x3c978a22	0.018498484
21	0xbd6eca62	-0.058298476
22	0x3b87e132	0.0041467184
23	0xbdd0c93d	-0.10194633
24	0xbc184b80	-0.009295344
25	0x3d092190	0.033479273
26	0xbd30c75c	-0.043158874
27	0x3d5542e2	0.052065738
28	0x3da34de8	0.07973844
29	0xbdcefa87	-0.10106378
30	0xbdcb87eb	-0.09938034
31	0x3cbbef35	0.022941211
32	0xbce96d6c	-0.02849456
33	0x3da7a0b9	0.08184952
34	0x3d0b65d8	0.034032673
35	0x3db944ef	0.09046351
36	0xbdf51a68	-0.11967927
37	0x3d2590bf	0.040421244
38	0x3b6dfa9a	0.00363127
39	0xbd6633c2	-0.056201704
40	0xbd23400f	-0.039856013
41	0xbc8b26f3	-0.016986346
42	0xbdbcb15f	-0.09213518
43	0xbde01f9e	-0.109435305
44	0xbd098e92	-0.03358323
45	0x3d2ad2cd	0.04170494
46	0xbc6c1420	-0.014409095
47	0xbd8e6121	-0.069521196
48	0xbdf17998	-0.1179077
49	0xbc56d044	-0.013111178
50	0x3d9839e2	0.07432915
51	0xbd93ab07	-0.07210355
52	0xbd80fba4	-0.06297997
53	0xbdd223f3	-0.10260763
54	0xbd5f0089	-0.05444387
55	0xbe03e76b	-0.12881248
56	0xbd6f3f93	-0.05841024
57	0x3d122e00	0.0356884
58	0xbde3247c	-0.11090943
59	0x3c9d2705	0.019183645
60	0xbd6f136e	-0.05836814
61	0xbe0ebcb6	-0.13939175
62	0xbd862db9	-0.0655169
63	0xbd867ab3	-0.06566372
64	0xbde249c3	-0.11049225
65	0xba2485fb	-0.0006276068
66	0xbdce01b7	-0.10058921
67	0xbdda592f	-0.10661542
68	0xbcb8a47a	-0.022539366
69	0x3dba2736	0.0908951
70	0x3d93fc33	0.072258376
71	0xbd99a817	-0.07502764
72	0xbd493949	-0.049126897
73	0xbdcddda6	-0.10052042
74	0xbd2f438f	-0.04278904
75	0xbdccec48	-0.100060046
76	0xbdbed9a4	-0.093188554
77	0xbb3ef349	-0.0029136708
78	0x3e305b3f	0.17222308
79	0x3b14648c	0.0022642938
80	0xbe2b5890	-0.16733003
81	0x3c76d698	0.015065812
82	0xbd1dc0e1	-0.03851402
83	0x3cadff79	0.021239983
84	0xbdf50f91	-0.1196586
85	0x3d33a9e5	0.043863196
86	0x3da47ccc	0.080316156
87	0xbd59eae6	-0.053202532
88	0xbb5394a9	-0.0032284653
89	0xbd9c2bb2	-0.07625522
90	0xbdc91afb	-0.09819599
91	0xbcf2a20e	-0.02961829
92	0xbe0dffa4	-0.1386705
93	0x3d74f7ba	0.059806563
94	0xbd6dad4f	-0.058026608
95	0xbdd4ad38	-0.10384601
96	0x3e061218	0.1309284
97	0xbe0d4823	-0.13797049
98	0x3dfe2c20	0.1241076
99	0x3cc0ecb0	0.023550361
100	0xbce4b608	-0.02791883
101	0xbe056b49	-0.13029207
102	0xbe09452b	-0.13405292
103	0xba5cf041	-0.00084281346
104	0xbcc6bbda	-0.024259496
105	0x3c6be6b5	0.014398267
106	0xbdd6f30f	-0.104955785
107	0xbde225d1	-0.11042369
108	0x3c04e02d	0.008110088
109	0xbe029896	-0.1275352
110	0xbd920685	-0.0713015
111	0xbda1e44a	-0.07904871
112	0xbe186151	-0.14880873
113	0xbd79d95e	-0.060998313
114	0x3d500062	0.050781615
115	0xbe1ed896	-0.15512308
116	0xbe47bcb9	-0.19505586
117	0xbddb2cb2	-0.10701884
118	0xbdbde1f4	-0.09271613
119	0xbd023dd8	-0.03179726
120	0xbe02675b	-0.1273474
121	0x3d79d58f	0.06099468
122	0xbc973e2c	-0.018462263
123	0xbddeb3b4	-0.108741194
124	0xbde292ba	-0.11063142
125	0x3be36224	0.0069391895
126	0x3d156d51	0.036481205
127	0x3c8f43bf	0.017488359
128	0xbda3dd04	-0.0800114
129	0xbe05904b	-0.13043325
130	0xbd0c66d8	-0.034277767
131	0xbcdfcdba	-0.027319778
132	0xbe19946e	-0.14998028
133	0xbd87733c	-0.06613776
134	0x3d7b19b2	0.0613038
135	0x3d9bffd5	0.076171555
136	0x3cc4d658	0.024027988
137	0x3cf08688	0.029361024
138	0xbd2f7dad	-0.042844463
139	0x3d76752a	0.06017033
140	0xbcc3273c	-0.02382242
141	0xbd69af36	-0.05705186
142	0xbb15ec60	-0.0022876486
143	0xbcaa1870	-0.020763606
144	0xbd8e5414	-0.069496304
145	0xbe0e3d7a	-0.13890639
146	0xbcde9468	-0.027170375
147	0xbd9a3cbb	-0.07531115
148	0xbd1032ea	-0.035204805
149	0xbcfe8156	-0.031067532
150	0x3ccc2704	0.024920948
151	0x3da4ad1f	0.08040833
152	0x3d8657b1	0.065596946
153	0xbdce0266	-0.10059051
154	0xbd9210dc	-0.07132122
155	0xbcd060a0	-0.0254367
156	0xbd285bf3	-0.041103315
157	0x3d477e0a	0.048704185
158	0xbdafa8e0	-0.08577132
159	0xbdf2bf51	-0.11852897
160	0x3c8f6fe2	0.017509405
161	0xbd864aa6	-0.06557207
162	0xbe0052a2	-0.12531522
163	0x3d85a839	0.065262266
164	0x3b9d9a68	0.0048096664
165	0xbddf12ff	-0.10892295
166	0x3b2618a0	0.0025344267
167	0xbd32b257	-0.04362711
168	0xbd0d5291	-0.03450257
169	0xbbb36f30	-0.005475901
170	0x3c22f2a8	0.009945549
171	0xbd9fa018	-0.07794207
172	0xbd8d8f10	-0.06912053
173	0x3db444af	0.08802163
174	0xbd0ca7b6	-0.03433963
175	0xbd6d432e	-0.057925396
176	0xbc766750	-0.01503928
177	0xbdd084ad	-0.10181556
178	0xbe02dd07	-0.12779628
179	0xbd94935f	-0.07254671
180	0xbd8b57dc	-0.06803867
181	0xbd283760	-0.041068435
182	0xbd3c2d21	-0.045941476
183	0xbc540108	-0.012939699
184	0xbcce0f63	-0.025153821
185	0xbda0cd5f	-0.078516714
186	0x3d622462	0.05521048
187	0xbb8c2a63	-0.004277514
188	0xbd9ee560	-0.077585936
189	0xbe11aca0	-0.14226007
190	0xbda6932a	-0.08133538
191	0xbd08fb7b	-0.033442955
192	0xbc5bcf88	-0.0134161785
193	0xbc128fe0	-0.008945435
194	0xbd64a591	-0.05582196
195	0x3d676c3a	0.056499697
196	0xbde7cab5	-0.1131796
197	0x3d04b194	0.032395914
198	0xbcb736a8	-0.02236493
199	0xbdbfe4c0	-0.093698025
200	0x3caf55f8	0.021403298
201	0xbdb3bb41	-0.0877595
202	0xbd2eed64	-0.042706862
203	0xbca94134	-0.020660974
204	0xbd17a221	-0.037019853
205	0xbd9626cc	-0.07331619
206	0xbdb44c91	-0.088036664
207	0xbe1a7605	-0.15084083
208	0xbdc41e56	-0.095760986
209	0xbd312474	-0.043247655
210	0xbe0d9d35	-0.13829501
211	0xbd91369c	-0.07090494
212	0xbd60adbc	-0.054853186
213	0xbda208f6	-0.079118654
214	0xbcbc96dc	-0.023021154
215	0xbd1cf87d	-0.038322914
216	0xbd18d16f	-0.037309106
217	0x3d8896d3	0.066693924
218	0x3adb6d54	0.0016740956
219	0xbd4a2ba4	-0.049358025
220	0xbd7d8eab	-0.061903637
221	0x3d610bce	0.0549429
222	0xbdaab8b2	-0.08336009
223	0x3d651c5a	0.05593524
224	0xbd5cb142	-0.053879984
225	0xbd7d83b9	-0.0618932
226	0x3c9a513b	0.018837562
227	0x3c1f5578	0.009724967
228	0x3c1f8c78	0.00973808
229	0xbd68f23d	-0.05687164
230	0xbcbbbc9c	-0.022917084
231	0xbc734cc8	-0.014849849
232	0xbd84fbea	-0.06493361
233	0x3c0e062d	0.008668465
234	0xbd0f1fcf	-0.034942444
235	0xbce6d48c	-0.028177522
236	0xbd01a53f	-0.03165173
237	0x3d418b7e	0.04725217
238	0xbc1390e8	-0.009006716
239	0xbd5394c3	-0.051655542
240	0xbd374801	-0.044746403
241	0x3d70463e	0.05866074
242	0x3c66364a	0.014051029
243	0xbe12a828	-0.14321959
244	0xbe1d4c36	-0.15361103
245	0xbdadcd72	-0.08486451
246	0xbd31a08c	-0.043366
247	0x3d5cd60a	0.05391506
248	0xbdf468ae	-0.119340286
249	0xbd750986	-0.059823535
250	0x3c1db9b0	0.009626791
251	0xbd835817	-0.06413286
252	0xbd0b482b	-0.03400437
253	0xbd3a2e3c	-0.04545425
254	0xbd4f59d5	-0.05062278
255	0xbd5ea3ca	-0.05435542

middle_layer.bias f4 [128]
0	0xbe0c040c	-0.13673419
1	0xbda6f280	-0.08151722
2	0x3e8751ef	0.26429698
3	0xbd0779cc	-0.03307514
4	0xbdb0a57d	-0.086253144
5	0x3efe08b0	0.49616003
6	0xbdf00f48	-0.11721665
7	0xbd76b13f	-0.06022763
8	0xbe0abae1	-0.13547851
9	0x3c5ec699	0.013597154
10	0x3ebee770	0.37285948
11	0xbdd57947	-0.104235224
12	0x3dd1b852	0.102402344
13	0x3f0ad76f	0.54234976
14	0x3f2b30b0	0.66871166
15	0xbd591fc6	-0.053008817
16	0xbded4c91	-0.115868695
17	0x3ed2d876	0.41180772
18	0xbe99752e	-0.29972214
19	0xbe43b1a0	-0.19110727
20	0x3ed19aa6	0.409383
21	0xbcc8b59f	-0.024500666
22	0x3ebe998e	0.37226528
23	0x3e59fbdc	0.21287483
24	0x3e8970a9	0.26843765
25	0x3f02a723	0.5103628
26	0x3e943d8e	0.28953212
27	0xbcb1c5f5	-0.021700839
28	0x3ebb27d6	0.3655383
29	0x3d0716a8	0.03298059
30	0x3c188fc7	0.009311623
31	0x3ebff49f	0.3749132
32	0xbd9d1298	-0.07669562
33	0x3e10a2e7	0.14124642
34	0xbd851e11	-0.06499875
35	0x3e915da0	0.28391743
36	0x3ecf7045	0.40515342
37	0xbc8b69c0	-0.017018199
38	0xbd21eda7	-0.039533284
39	0x3e9c6457	0.30545303
40	0xbb1139d5	-0.0022159715
41	0x3e8b2099	0.27173308
42	0xbdabf1fc	-0.08395764
43	0xbd60b592	-0.05486066
44	0xbd96fd7f	-0.07372569
45	0x3e18c8dc	0.14920372
46	0x3ae70edb	0.0017628329
47	0x3ee2c170	0.44288206
48	0x3d805b80	0.06267452
49	0xbd98a45e	-0.074532256
50	0x3c0a32b5	0.008434941
51	0xbbd0e197	-0.0063745487
52	0xbb831426	-0.0040002046
53	0xbcf69578	-0.03010057
54	0x3d6a4d88	0.057202846
55	0xbdafb5a1	-0.08579565
56	0xbe3c699a	-0.18399659
57	0x3f05cd0c	0.52266
58	0x3efbd188	0.49183297
59	0x3e9005b0	0.2812934
60	0x3ef1c953	0.4722391
61	0x3e81481b	0.25250325
62	0xbda3448c	-0.07972059
63	0x3bc9ba40	0.006156236
64	0xbcd60a21	-0.026127877
65	0x3f053341	0.5203133
66	0x3df96acb	0.12178572
67	0xbca4be4f	-0.020110277
68	0xbea2df35	-0.31810918
69	0xb8b3c951	-8.572883e-05
70	0xbdc70e9e	-0.09719585
71	0xbe182d73	-0.14861088
72	0x3f0abcdd	0.5419443
73	0xbe0da050	-0.13830686
74	0x3f0574b9	0.5213123
75	0xbe05fd43	-0.13084893
76	0x3e75559d	0.2395844
77	0x3e4d6b40	0.20060444
78	0xbca567f5	-0.020191172
79	0xbe143eb4	-0.14477044
80	0xbdbc45d9	-0.0919301
81	0x3f0e1e83	0.5551531
82	0xbe0c7107	-0.13714992
83	0x3f1a013a	0.6015812
84	0x3cc5c354	0.024140991
85	0xbc6f5357	-0.014607272
86	0x3edd4398	0.43215632
87	0xbc167e06	-0.00918532
88	0x3d8b15b1	0.06791247
89	0xbd04ea47	-0.032449987
90	0xbd819fcb	-0.06329306
91	0xbd3cea5a	-0.046121933
92	0xbdb95b22	-0.09050585
93	0x3e70929f	0.23493432
94	0x3e2a2c90	0.16618562
95	0x3e9e6fde	0.30944723
96	0xbc9b34f2	-0.018946145
97	0x3d684747	0.0567086
98	0xbd871795	-0.06596295
99	0x3e93a209	0.2883456
100	0xbc4eea5d	-0.012629119
101	0x3f2c031e	0.67192256
102	0xbdd7578e	-0.105147466
103	0x3bc87753	0.00611774
104	0xbcb4d7a3	-0.02207548
105	0xbd12197f	-0.035668846
106	0xbe2b2c7c	-0.16716188
107	0xbdffa7cc	-0.124831766
108	0xbd152acf	-0.03641778
109	0x3c9c3fcf	0.019073395
110	0x3ebefd27	0.37302515
111	0xbc779b4d	-0.01511271
112	0x3bb0e4e9	0.005398382
113	0x3a132107	0.00056125264
114	0x3affa8c1	0.0019505249
115	0xbda9198b	-0.08256825
116	0x3ee9bbb3	0.45651016
117	0x3db7d6a5	0.08976487
118	0x3f17ad95	0.5924924
119	0xbcd2b586	-0.025721323
120	0xbdf094de	-0.11747144
121	0xbdaeebe3	-0.085410856
122	0x3cbb660a	0.022875804
123	0xbd9adafb	-0.075612985
124	0xbddd492a	-0.108049706
125	0x3e585a95	0.21128304
126	0xbd37a882	-0.044838436
127	0x3f026c38	0.5094638

exit_layer.weight f4 [4, 128]
0	0xbcf20998	-0.02954559
1	0xbc6ed07c	-0.014576074
2	0xbe3fdf2e	-0.1873748
3	0xbbb0752f	-0.005385063
4	0x3c6ae8b4	0.014337707
5	0xbe67bdab	-0.22630946
6	0x3d7e4e78	0.062086552
7	0x3d03cf76	0.032180272
8	0x3d7f1cc8	0.062283307
9	0xbbc44abf	-0.0059903557
10	0xbe747e93	-0.23876409
11	0x3d8faa74	0.07014933
12	0xbde7010f	-0.11279499
13	0xbe5eac5f	-0.21745442
14	0xbe8f2514	-0.27957976
15	0xbd03e72d	-0.03220289
16	0x3d910098	0.070801914
17	0xbe4e114b	-0.20123784
18	0x3e8db081	0.27673724
19	0x3d8b7488	0.06809336
20	0xbe582e12	-0.21111324
21	0x3db3f235	0.08786432
22	0xbe57f55e	-0.21089694
23	0xbe0f70b1	-0.14007832
24	0xbe0813cc	-0.13288802
25	0xbe82645e	-0.254672
26	0xbe113c52	-0.14183167
27	0x3b912015	0.0044288733
28	0xbe3dfa9b	-0.1855263
29	0xbb849a3a	-0.0040467056
30	0x3c8ee40e	0.01744273
31	0xbe661c1e	-0.22471663
32	0x3b24540c	0.002507451
33	0xbe1a4f13	-0.15069227
34	0x3e0cd3f1	0.13752724
35	0xbe3c36ef	-0.1838033
36	0xbe503d9a	-0.20335999
37	0xbde60b6d	-0.11232648
38	0xbbdb74a7	-0.0066972557
39	0xbe46d3ac	-0.19416684
40	0xbc57c529	-0.013169565
41	0xbe5134da	-0.20430318
42	0xbd563bf7	-0.05230328
43	0xbce12cd0	-0.027487189
44	0x3cc8f581	0.024531128
45	0xbe365a77	-0.17807947
46	0xbcb25ad0	-0.021771818
47	0xbe867ba0	-0.26266193
48	0xbdf37cbf	-0.11889028
49	0xbc961ee3	-0.018325275
50	0xbe1806be	-0.14846322
51	0x3d506368	0.05087605
52	0x3a8b5326	0.0010629639
53	0xbe319d12	-0.17345074
54	0xbe130519	-0.14357413
55	0x3c3f8aad	0.011690778
56	0x3e015ffe	0.12634274
57	0xbe41c456	-0.18922552
58	0xbe76c16d	-0.24097224
59	0xbe2e2ab2	-0.17008474
60	0xbe468089	-0.1938497
61	0xbe0dad9b	-0.13835756
62	0x3d5643fa	0.05231092
63	0xbcdcb5e2	-0.026942197
64	0xbd238a90	-0.039927065
65	0xbe4c9969	-0.19980396
66	0xbdcc638c	-0.099799246
67	0x3c951450	0.018198162
68	0x3d6c5ebd	0.057707537
69	0x3dadac3c	0.08480117
70	0x3d10a84d	0.035316754
71	0x3b7503c0	0.0037386268
72	0xbe496ea2	-0.1967111
73	0xbb91054a	-0.0044256793
74	0xbe8eff16	-0.2792899
75	0x3c44b3c4	0.01200575
76	0xbe2b1976	-0.16708931
77	0xbe0015eb	-0.12508361
78	0x3db61e77	0.088925295
79	0x3db05404	0.08609775
80	0x3c656d34	0.014003087
81	0xbe63b891	-0.22238375
82	0x3dae27a2	0.08503653
83	0xbe61e5ff	-0.22060393
84	0x3dbaf883	0.09129431
85	0x3d9b6a2c	0.0758861
86	0xbe8a2f76	-0.26989335
87	0xbc4fe782	-0.012689473
88	0xbe517b32	-0.20457152
89	0x3de64497	0.11243551
90	0x3d0b6c9a	0.034039117
91	0x3d4d187e	0.050072186
92	0x3c87821f	0.016541539
93	0xbe22d47e	-0.15901372
94	0xbe068273	-0.131357
95	0xbe272359	-0.16322078
96	0xbdb68885	-0.08912758
97	0xbe10f578	-0.14156139
98	0xbd0b63c1	-0.03403068
99	0xbe1d267e	-0.15346715
100	0xbe0f86c9	-0.1401626
101	0xbe75b954	-0.23996478
102	0x3d99955d	0.07499192
103	0xbba2e918	-0.0049716346
104	0xbe0e5dfa	-0.13903037
105	0xbd972d9e	-0.07381748
106	0xbbfabf00	-0.0076521635
107	0xbc922f6d	-0.01784488
108	0xbbc199c5	-0.0059082233
109	0x3d0fa523	0.035069596
110	0xbe69a692	-0.22817448
111	0xbdf9d234	-0.12198296
112	0x3cc6f251	0.024285467
113	0xbde0f237	-0.10983699
114	0x3db809bb	0.08986231
115	0xbd1d8fda	-0.038467266
116	0xbe81f930	-0.25385427
117	0xbe0ebb81	-0.13938715
118	0xbe88eef9	-0.26744822
119	0xbd1174ad	-0.03551166
120	0xbc0faf28	-0.008769788
121	0xbcc631bf	-0.024193643
122	0x3dacc279	0.0843553
123	0xbbae7e79	-0.0053251353
124	0x3dc3788a	0.095444754
125	0xbddb135c	-0.10697052
126	0xbbaddac8	-0.005305622
127	0xbe5a4c86	-0.21318254
128	0xbcceae0e	-0.02522948
129	0x3c145fc8	0.009056039
130	0xbe6f692b	-0.23379962
131	0xbd8021c9	-0.06256444
132	0xbc8417c6	-0.016124617
133	0xbe260492	-0.16212681
134	0xbd847c47	-0.064690165
135	0x3d010a7c	0.03150414
136	0xbd1bc3ba	-0.038028456
137	0x3d42c8c2	0.04755474
138	0xbe8f96e1	-0.280448
139	0xbe104821	-0.14090015
140	0xbd32aa92	-0.0436197
141	0xbe76116d	-0.24030085
142	0xbe8d9356	-0.2765147
143	0xbc960ce0	-0.018316686
144	0xbddbfca3	-0.10741546
145	0xbe677abe	-0.22605416
146	0xbe9465eb	-0.28984007
147	0xbe66a707	-0.22524653
148	0xbe398198	-0.18115842
149	0x3cb16bc4	0.021657832
150	0xbe2302d0	-0.15919042
151	0xbdda26f0	-0.10651958
152	0xbe0149c0	-0.1262579
153	0xbe68fce9	-0.22752728
154	0xbdfeb1ec	-0.1243628
155	0xbca05fc0	-0.019576907
156	0xbe4fe128	-0.20300734
157	0x3ec71e6f	0.38890406
158	0xbde5826b	-0.11206516
159	0xbe743d98	-0.23851621
160	0x3da0d3a7	0.078528695
161	0xbe324261	-0.17408134
162	0x3c3b02f7	0.011414281
163	0xbe1b0391	-0.15138079
164	0xbe67f10b	-0.22650544
165	0xbcea1635	-0.028575042
166	0x3c25828f	0.010101928
167	0xbe06ef4b	-0.1317722
168	0xbcf0c570	-0.02939102
169	0xbe12390d	-0.14279576
170	0xbccf3c13	-0.0252972
171	0xbb566e1d	-0.0032719441
172	0x3d53fdb3	0.05175562
173	0xbe00bd03	-0.12572102
174	0xbcb3bc7b	-0.02194046
175	0xbe2488d6	-0.16067824
176	0xbdace2d2	-0.084417
177	0xbd5a969f	-0.0533663
178	0xbd920a89	-0.07130916
179	0xbd6cfdd0	-0.057859242
180	0xbe00bd6a	-0.12572256
181	0xbda286bb	-0.07935854
182	0xbd3317d1	-0.043723885
183	0x3a2e6e00	0.00066539645
184	0x3d6d077b	0.057868462
185	0xbe3b8985	-0.18314178
186	0xbe856297	-0.2605178
187	0xbe0d596b	-0.13803641
188	0xbe582513	-0.21107893
189	0xbd93888c	-0.072037786
190	0xbb662a20	-0.0035120323
191	0x3c9794ee	0.018503632
192	0xbd520875	-0.051277597
193	0xbe853959	-0.26020315
194	0xbd607c9e	-0.054806344
195	0xbde09e10	-0.10967648
196	0xbcb8fe71	-0.022582265
197	0xbd9c828f	-0.076420896
198	0xbc008e7e	-0.007846473
199	0xbe010bb1	-0.12602116
200	0xbe76de1c	-0.24108166
201	0xbd99e252	-0.0751387
202	0xbe760ffd	-0.24029537
203	0xbc9bbbca	-0.019010443
204	0xbe467041	-0.19378759
205	0xbdd38504	-0.10328105
206	0x3caeafce	0.021324065
207	0x3ddbe06f	0.10736167
208	0xbd2f60e1	-0.042817
209	0xbe4c536f	-0.19953702
210	0x3d433354	0.047656372
211	0xbe6cc7f5	-0.23123153
212	0xbcc427b1	-0.023944708
213	0x3d0d4529	0.034489784
214	0xbe892037	-0.2678239
215	0xbe0117da	-0.12606755
216	0xbe071567	-0.13191758
217	0xbd52df30	-0.05148238
218	0x3dc0dab7	0.094167165
219	0x3caf9d08	0.021437183
220	0x3d733e12	0.059385367
221	0xbe11cd0d	-0.14238377
222	0xbe024ba4	-0.12724167
223	0xbe2c45cd	-0.16823502
224	0xbd76cd1a	-0.060254194
225	0xbd86c8af	-0.06581246
226	0x3c311d93	0.010810274
227	0xbe429954	-0.19003803
228	0xbdb0ea4f	-0.08638441
229	0xbe661e78	-0.2247256
230	0x3c3f8108	0.011688478
231	0x3d92b3d1	0.071632035
232	0xbd289588	-0.04115823
233	0xbd918bfb	-0.07106777
234	0xbc276f70	-0.01021944
235	0xbd8cd792	-0.06877054
236	0xbcf8d426	-0.030374598
237	0x3c28d792	0.010305302
238	0xbe4d2db8	-0.20036972
239	0xbd99e04b	-0.075134836
240	0x3b8a1d40	0.0042149127
241	0xbdb95b21	-0.090505846
242	0x3bbb41d0	0.0057146326
243	0xbd1dbe1c	-0.03851138
244	0xbe3fcb00	-0.18729782
245	0xbdb8ab20	-0.090170145
246	0xbe92e158	-0.2868755
247	0x3da7392e	0.08165203
248	0xbd1d9eb8	-0.038481444
249	0xbcc1b887	-0.02364756
250	0xbcc342e6	-0.02383561
251	0xbdf86c6b	-0.12130054
252	0xbc58d0cb	-0.013233374
253	0xbd7dc747	-0.061957624
254	0xbc755558	-0.014973961
255	0xbe88a525	-0.26688495

exit_layer.bias f4 [4]
0	0xbe8ba8fc	-0.27277362
1	0xbed1f9c2	-0.41010863
2	0xbd2d78cb	-0.042351525
3	0xbea9877a	-0.33111173
