learnedData.pth (torch, 22263 bytes, 6 tensors)

entry_layer.weight f4 [64, 8]
0.70114285 0.9913324 -0.58025235 3.2786927 0.33022675 -0.34544337 -2.735482 -0.9612242
-0.32960662 0.2026508 0.9550782 0.6803485 1.3094776 -0.77083427 -0.60539144 0.73674256
-0.062022902 -0.44455242 -0.13098006 0.4533412 0.029276934 0.095045716 -0.13843827 -0.30378217
-0.8753345 1.7643024 3.9412699 0.054766662 3.7858462 -0.14779784 -6.395695 -0.4042871
-0.74948317 1.6978446 -0.016328165 1.2819188 3.5721166 -2.4908504 0.707342 0.49699944
4.0203066 -13.394536 -3.292409 -0.8676201 -5.23127 -2.106488 -0.70944595 -0.15311618
2.3408978 1.1111953 -5.167569 6.358407 0.24597791 -1.152455 -1.3052157 -4.6740875
-5.1788783 4.4314747 -0.92610216 1.5332944 1.8241925 -0.16347757 -4.913411 -2.8222232
1.64585 -0.6549596 -1.1508461 1.3844537 -0.33975628 0.20530571 -0.8932616 -1.051235
-1.5011336 -7.925178 -5.2476807 -1.0353737 2.1668441 -0.48930338 -0.017758103 -0.10902003
-0.23795402 -0.125592 4.9935455 2.6645813 -0.21624893 -0.12206987 0.18621892 -2.8991036
4.0348015 -33.213654 0.993141 -3.2137282 -0.067976065 0.12858123 0.12661952 0.060692143
0.23120579 6.7373524 -2.7479255 -2.1204104 2.445815 1.1605763 0.7769964 -0.9449428
0.41053376 -1.7761256 -0.29807863 1.7417732 0.4213395 -0.40944454 -0.44848853 -0.14234927
0.7409221 -3.0737767 -0.559234 0.033995524 -0.32288802 0.40550566 -1.6199638 -1.2464023
1.809831 -9.001613 -3.1702619 2.9227495 -5.084895 1.7029064 0.16966665 0.08189721
3.163536 -3.3286173 -3.0624151 2.0615175 2.307502 1.5807672 1.0271982 0.00631428
0.7098212 -0.58978474 0.11115439 0.9869558 -0.21152322 0.20884226 -0.37524667 -0.69121766
-0.8686811 0.8054644 -6.157351 5.3898544 1.1315174 -0.2559301 -0.37134236 -0.45341244
0.22296253 4.6409655 -1.9075282 1.0673947 1.2431517 0.32047883 -0.74311715 -1.9557184
-4.6067805 9.268528 0.6659248 -2.8725407 -2.9635234 -1.2526379 -0.7981791 -2.2361288
0.5423772 -0.00590388 -0.25828713 0.2247521 0.33524838 -0.29079515 -0.48375493 -0.031689785
0.50737894 -0.3531421 0.094192095 0.6952809 0.12587497 -0.0011966969 -0.4642497 -0.03793715
0.39936012 -1.5957661 8.324006 2.7248135 3.7459326 0.3466668 -0.07374791 0.683673
2.5059922 -0.12818202 -1.029083 4.65281 0.32640773 -0.03826085 -1.1975689 -1.5206267
3.9540653 -12.136206 5.6004434 2.7543983 4.288776 0.58397156 0.3197823 0.29662374
1.1281276 -1.4682171 -5.0113935 5.737445 -2.8657076 -0.08807464 -0.11409035 0.27348223
2.976114 -20.77092 -0.8748343 1.1439565 -1.2617371 -0.91901535 -1.9469767 -1.8295343
1.3179212 -7.3576145 -5.7667265 1.503661 -6.7173867 -1.5457952 -0.33063766 -0.43578702
-1.2847989 -8.48203 -0.2298586 -0.91555685 1.221405 1.149891 -0.2532275 -4.8276634
-4.120243 3.9989476 5.0668883 -0.2533365 -3.7775295 0.49130446 -0.16572905 -0.23640248
2.4386177 -5.1661434 3.0101638 -4.329417 2.18137 0.6391907 -0.14602157 -1.0266973
00000000: 197e 333f f6c7 7d3f 6b8b 14bf 1ad6 5140
00000010: 7b13 a93e f4dd b0be 2312 2fc0 ca12 76bf
00000020: 33c2 a8be b183 4f3e 0180 743f 522b 2e3f
00000030: f69c a73f 6555 45bf effa 1abf 299b 3c3f
00000040: ba0b 7ebd 609c e3be a31f 06be 561c e83e
00000050: 2ed6 ef3c 54a7 c23d c3c2 0dbe 5689 9bbe
00000060: ec15 60bf a9d4 e13f c43d 7c40 0253 603d
00000070: 4e4b 7240 5158 17be 89a9 ccc0 b8fe cebe
00000080: 21de 3fbf f952 d93f a5c2 85bc ea15 a43f
00000090: 8f9d 6440 186a 1fc0 5e14 353f b676 fe3e
000000a0: 5aa6 8040 0550 56c1 d4b6 52c0 5a1c 5ebf
000000b0: 9066 a7c0 b3d0 06c0 409e 35bf 7dca 1cbe
000000c0: 45d1 1540 a63b 8e3f ba5c a5c0 1278 cb40
000000d0: a2e1 7b3e a583 93bf 4f11 a7bf 2092 95c0
000000e0: 5fb9 a5c0 a4ce 8d40 0815 6dbf fe42 c43f
000000f0: 247f e93f aa66 27be aa3a 9dc0 4e9f 34c0
00000100: 36ab d23f 6fab 27bf ed4e 93bf c735 b13f
00000110: 89f4 adbe a93b 523e cbac 64bf de8e 86bf
00000120: 2525 c0bf 0f9b fdc0 00ed a7c0 2087 84bf
00000130: 93ad 0a40 f985 fabe 7179 91bc e545 dfbd
00000140: 38aa 73be 309b 00be 20cb 9f40 8088 2a40
00000150: 5c70 5dbe c5ff f9bd 2cb0 3e3e ea8a 39c0
00000160: 181d 8140 c8da 04c2 7d3e 7e3f b9ad 4dc0
00000170: 0937 8bbd ccaa 033e 8ca8 013e 5398 783d
00000180: 36c1 6c3e 6498 d740 03de 2fc0 ceb4 07c0
00000190: 3c88 1c40 c48d 943f 3ce9 463f c5e7 71bf
000001a0: 7b31 d23e 1558 e3bf c39d 98be 6df2 de3f
000001b0: d0b9 d73e b7a2 d1be 4aa0 e5be 02c4 11be
000001c0: 12ad 3d3f c2b8 44c0 f629 0fbf e43e 0b3d
000001d0: 9451 a5be 709e cf3e f95a cfbf 1c8a 9fbf
000001e0: 8ba8 e73f 9b06 10c1 92e5 4ac0 540e 3b40
000001f0: 76b7 a2c0 d6f8 d93f 18bd 2d3e b9b9 a73d
00000200: 6077 4a40 1108 55c0 9cfe 43c0 e7ef 0340
00000210: 1dae 1340 9456 ca3f 3b7b 833f 05e8 ce3b
00000220: d8b6 353f 22fc 16bf eaa4 e33d 23a9 7c3f
00000230: 8b99 58be bfda 553e 5520 c0be a4f3 30bf
00000240: e261 5ebf ea32 4e3f 0509 c5c0 b079 ac40
00000250: 90d5 903f 4509 83be 9620 bebe ad25 e8be
00000260: 4a50 643e ca82 9440 e229 f4bf 64a0 883f
00000270: 981f 9f3f cd15 a43e ed3c 3ebf fb54 fabf
00000280: bf6a 93c0 e44b 1441 0c7a 2a3f b5d7 37c0
00000290: 5eaa 3dc0 7056 a0bf 7755 4cbf bc1c 0fc0
000002a0: 3bd9 0a3f 5675 c1bb 363e 84be 6a25 663e
000002b0: ada5 ab3e 1ae3 94be baae f7be 26cd 01bd
000002c0: 96e3 013f 0bcf b4be c9e7 c03d eefd 313f
000002d0: 5ee5 003e 7cda 9cba 23b2 edbe fc63 1bbd
000002e0: ee78 cc3e 1042 ccbf 212f 0541 5863 2e40
000002f0: 5cbd 6f40 507e b13e 2509 97bd 3205 2f3f
00000300: 2d62 2040 2642 03be feb8 83bf d2e3 9440
00000310: ea1e a73e 69b7 1cbd f049 99bf e5a3 c2bf
00000320: 680f 7d40 e62d 42c1 d536 b340 1048 3040
00000330: a73d 8940 297f 153f 81ba a33e 11df 973e
00000340: 7c66 903f 8aee bbbf 565d a0c0 2699 b740
00000350: c167 37c0 7a60 b4bd 34a8 e9bd dd05 8c3e
00000360: a778 3e40 d82a a6c1 24f5 5fbf 2b6d 923f
00000370: 9a80 a1bf 9744 6bbf 8836 f9bf 2e2e eabf
00000380: a4b1 a83f 9471 ebc0 0689 b8c0 f777 c03f
00000390: d5f4 d6c0 9edc c5bf 5749 a9be 7a1f dfbe
000003a0: 4a74 a4bf 65b6 07c1 0e60 6bbe ef61 6abf
000003b0: 0057 9c3f a12f 933f 09a7 81be 387c 9ac0
000003c0: 08d9 83c0 c2ee 7f40 f323 a240 52b5 81be
000003d0: 0bc3 71c0 428c fb3e e0b4 29be 7e13 72be
000003e0: 5012 1c40 0c51 a5c0 86a6 4040 968a 8ac0
000003f0: 919b 0b40 00a2 233f ae86 15be d16a 83bf

entry_layer.bias f4 [64]
2.1486466 -0.47402117 -0.40331572 -1.7918191 -0.24404687 -6.1343436 -2.1977074 -3.1582768
-2.0784194 2.5720007 -0.0073176306 -0.8752082 -3.8557448 -1.7501353 -1.414675 -0.4921991
-3.6560874 -0.9898359 -0.9974041 3.583905 -3.2893462 -1.2577006 -0.5540178 -0.4871382
-1.0400752 -4.3977194 2.2334888 2.5697985 -0.7035108 1.0787665 -4.0857987 -3.5738516
-3.9209213 -4.125194 -6.274936 3.1953912 0.67315835 0.1436983 -6.389936 -1.2278965
-0.95824516 -1.7663381 4.100477 -2.7746987 -3.3713872 -1.5447758 0.056943133 -3.6013162
-1.5464845 1.6798631 -3.6256843 -0.14392921 -0.746993 -2.5461335 -0.39874646 -1.6640654
0.5243403 -3.4335046 -1.9346159 -1.2833791 -1.5676589 -3.358437 2.1331034 -4.346962
00000000: 6d83 0940 e7b2 f2be 667f cebe 545a e5bf
00000010: 6ce7 79be 8b4c c4c0 3da7 0cc0 3521 4ac0
00000020: d304 05c0 a99b 2440 bcc8 efbb a50d 60bf
00000030: 86c4 76c0 6f04 e0bf 1214 b5bf 8501 fcbe
00000040: 56fd 69c0 e365 7dbf e055 7fbf b35e 6540
00000050: a684 52c0 55fc a0bf 1cd4 0dbf 2e6a f9be
00000060: 2f21 85bf 1eba 8cc0 7bf1 0e40 9477 2440
00000070: 4919 34bf 0515 8a3f ddbe 82c0 fcb9 64c0
00000080: 60f0 7ac0 9701 84c0 47cc c8c0 4a81 4c40
00000090: 1b54 2c3f a625 133e 5b7a ccc0 b62b 9dbf
000000a0: 8e4f 75bf 5e17 e2bf 1c37 8340 aa94 31c0
000000b0: cfc4 57c0 37bb c5bf 343d 693d f77b 66c0
000000c0: 34f3 c5bf c105 d73f 360b 68c0 2e62 13be
000000d0: ef3a 3fbf daf3 22c0 7f28 ccbe 1800 d5bf
000000e0: 2a3b 063f 8abe 5bc0 7ea1 f7bf c445 a4bf
000000f0: 0ca9 c8bf a2f0 56c0 c484 0840 501a 8bc0

middle_layer.weight f4 [64, 64]
-0.11507362 0.044351697 -0.023377374 -0.09727876 -0.04188162 -0.15723935 -0.07485287 -0.068356074
0.039938137 -0.4340394 -0.43860373 -0.08606197 -0.4277337 -0.071774185 -0.17027012 -0.32180196
-0.14283296 0.061062142 0.12277947 -0.372062 0.017313758 0.11739351 -0.039535895 -0.068821535
-0.0512722 -0.43937078 -0.41501796 0.061162822 -0.01866062 -0.1277688 -0.28289732 -0.27433133
0.091961384 -0.10350993 0.017187893 -0.06416648 0.008820638 -0.2698982 -0.24828024 -0.11907836
0.06870735 -0.034452375 -0.081640735 0.11307563 -0.3366832 -0.024542019 -0.042283803 -0.0021443814
-0.17392637 -0.39118996 -0.13618656 -0.06826217 -0.29625702 0.04813805 -0.067622215 -0.10690522
-0.46618605 0.050310567 -0.00840269 -0.16644923 0.10765119 -0.28565955 -0.056103718 0.060957205
-0.2622181 -0.07609767 -0.0066263378 -0.4238026 -0.12081526 -0.04987674 -0.098467045 0.021667887
0.09273864 -0.42123267 -0.36531132 0.02421102 -0.05827824 0.07925771 -0.11455143 -0.08880318
0.064162195 0.007827893 0.034875304 -0.43120363 -0.1253405 -0.024702176 -0.08390163 -0.27827033
-0.07251437 0.030196369 -0.17277245 -0.2946995 -0.42315078 -0.08788128 -0.38676372 0.02588474
-0.2105258 -0.053510442 -0.088651404 -0.34678963 -0.2468103 0.010403007 0.05506234 0.024350597
0.08024466 -0.12499228 -0.20396592 -0.113644324 -0.10284659 -0.059650287 0.055792604 -0.24691789
-0.019636068 -0.298159 -0.10840928 -0.1492867 -0.112708054 -0.41038793 0.04506834 0.06685221
-0.033540267 -0.054300383 0.08126752 -0.0070980205 0.07687642 -0.09522408 -0.11574026 -0.022243124
-1.4779407 -1.3415077 0.12470491 1.5839825 -1.6309868 -0.5765346 -0.27463606 -0.98871213
-0.40115848 2.867892 1.4419614 -0.17970437 -1.4074872 -0.106194 -2.3709269 -1.8460389
1.5154792 -0.035128385 -0.72132844 0.5721758 -1.409515 -0.6360741 -0.42873648 6.9829655
0.36815655 1.0085015 0.9590878 -1.613499 0.8745048 -0.6449342 -0.20469464 -2.1405978
-3.1794243 5.6125393 -2.9870117 -1.9298579 2.4387352 -0.29112503 -3.2854145 -2.8484287
0.079933256 -0.22224605 -7.4586263 -2.3079088 -2.6350214 1.6376659 -0.5164257 -0.8995508
0.15024568 -3.573539 -3.877574 1.11272 0.18316069 -0.861012 0.047438666 0.17045058
0.16106643 -2.1594272 -2.6057954 0.04686266 -1.9032874 -3.289771 -4.0978546 -0.23002253
-0.44056433 -0.30217752 0.06625058 -0.4253546 -0.04843522 0.6698894 -0.4025138 -0.24177568
-0.17980073 -1.289141 -0.24197502 -0.37812284 -0.68099326 -0.15457267 -0.01559296 -2.4887962
-0.51537156 0.08679928 -0.32767567 -0.82218635 -0.23907894 -0.10141587 -0.4035905 -0.15315756
-0.5561776 0.0564643 -0.3796016 -0.2630858 -0.75536215 -0.68156123 -0.01498767 -0.72612137
0.20287521 -0.4470098 -2.2333202 -0.5215327 -1.0824504 0.31878898 -0.32586882 -0.28497416
-0.0662541 0.011730773 -0.37841162 -1.1133845 -0.6971279 0.71622264 -0.9914297 -0.85735655
-0.16643567 -0.31749272 -0.6158874 0.0423639 -2.4420903 -0.8546297 -0.0042535802 0.05452822
-1.0756425 0.8278904 -0.6439537 -2.6907582 -0.28910276 -0.4554633 -0.732385 1.2492012
00000000: b8ab ebbd 20aa 353d e881 bfbc 163a c7bd
00000010: 108c 2bbd 5a03 21be 764c 99bd 45fe 8bbd
00000020: 2c96 233d 6a3a debe ab90 e0be 4241 b0bd
00000030: e9ff dabe 58fe 92bd 4a5b 2ebe 3ac3 a4be
00000040: ce42 12be 4c1c 7a3d ce73 fb3d e97e bebe
00000050: 95d5 8d3c 026c f03d 64f0 21bd 4ef2 8cbd
00000060: cc02 52bd 35f5 e0be 3c7d d4be de85 7a3d
00000070: 28de 98bc d3d5 02be ebd7 90be 2875 8cbe
00000080: 4056 bc3d 04fd d3bd a0cd 8c3c b769 83bd
00000090: 7084 103c 1930 8abe 2d3d 7ebe 5bdf f3bd
000000a0: 70b6 8c3d ef1d 0dbd 4233 a7bd 3294 e73d
000000b0: be61 acbe 580c c9bc c831 2dbd c088 0cbb
000000c0: c119 32be 0d4a c8be 7d74 0bbe 09cd 8bbd
000000d0: 00af 97be 672c 453d 847d 8abd 20f1 dabd
000000e0: f0af eebe 7412 4e3d 70ab 09bc ab71 2abe
000000f0: 3a78 dc3d f841 92be 03cd 65bd 43ae 793d
00000100: 7341 86be 18d9 9bbd c021 d9bb a8fc d8be
00000110: fe6d f7bd 8d4b 4cbd 17a9 c9bd da80 b13c
00000120: c2ed bd3d cfab d7be 160a bbbe 3056 c63c
00000130: 2ab5 6ebd de51 a23d f199 eabd 71de b5bd
00000140: 7867 833d 9040 003c 68d9 0e3d b9c6 dcbe
00000150: 4359 00be 385c cabc 9ed4 abbd 7379 8ebe
00000160: 6a82 94bd 605e f73c 43eb 30be dae2 96be
00000170: 38a7 d8be 1afb b3bd e505 c6be 3c0c d43c
00000180: 1394 57be c42d 5bbd de8e b5bd 698e b1be
00000190: d7bb 7cbe 6071 2a3c 0c89 613d e77a c73c
000001a0: 5057 a43d f4fb ffbd 71dc 50be 5bbe e8bd
000001b0: 3ca1 d2bd dc53 74bd c986 643d 0bd8 7cbe
000001c0: d2db a0bc 4ca8 98be af05 debd 9dde 18be
000001d0: 7bd3 e6bd 5e1e d2be 9499 383d d0e9 883d
000001e0: 8561 09bd 146a 5ebd 966f a63d 8396 e8bb
000001f0: 6271 9d3d d804 c3bd 3b09 edbd 3637 b6bc
00000200: 292d bdbf 86b6 abbf 4a65 ff3d f0bf ca3f
00000210: 2dc4 d0bf c697 13bf 199d 8cbe 3d1c 7dbf
00000220: a564 cdbe 8b8b 3740 3192 b83f 6c04 38be
00000230: 8a28 b4bf 3d7c d9bd 44bd 17c0 014b ecbf
00000240: 39fb c13f c8e2 0fbd fba8 38bf 1d7a 123f
00000250: fd6a b4bf c1d5 22bf 5983 dbbe 7474 df40
00000260: 047f bc3e 9416 813f c786 753f 2387 cebf
00000270: 8cdf 5f3f 681a 25bf 799b 51be 8eff 08c0
00000280: b07b 4bc0 ec99 b340 332b 3fc0 9505 f7bf
00000290: 3d14 1c40 570e 95be 3b44 52c0 a84c 36c0
000002a0: 0cb4 a33d 7894 63be 11ad eec0 c7b4 13c0
000002b0: 31a4 28c0 099f d13f 7a34 04bf f648 66bf
000002c0: 01da 193e ddb4 64c0 2c2a 78c0 9c6d 8e3f
000002d0: 7a8e 3b3e 486b 5cbf 0c4f 423d 998a 2e3e
000002e0: 99ee 243e 0e34 0ac0 5ac5 26c0 10f3 3f3d
000002f0: ec9e f3bf 9c8b 52c0 a021 83c0 078b 6bbe
00000300: a691 e1be 03b7 9abe 62ae 873d 14c8 d9be
00000310: 0264 46bd df7d 2b3f 4a16 cebe 0b94 77be
00000320: af1d 38be 9302 a5bf 4dc8 77be 5199 c1be
00000330: 9355 2ebf 4c48 1ebe 9d79 7fbc 7048 1fc0
00000340: 64ef 03bf d2c3 b13d 1bc5 a7be ce7a 52bf
00000350: 1cd1 74be 20b3 cfbd 6aa3 cebe 56d5 1cbe
00000360: a861 0ebf 1c47 673d 245b c2be 2fb3 86be
00000370: 6a5f 41bf cc7a 2ebf d88e 75bc 17e3 39bf
00000380: 85be 4f3e 78de e4be b8ee 0ec0 2b83 05bf
00000390: bc8d 8abf 4f38 a33e 47d8 a6be 22e8 91be
000003a0: 3bb0 87bd 6e32 403c 2bbf c1be 6283 8ebf
000003b0: f976 32bf 5e5a 373f 56ce 7dbf b87b 5bbf
000003c0: 1d6e 2abe 688e a2be ccaa 1dbf c585 2d3d
000003d0: 354b 1cc0 03c9 5abf 9e61 8bbb fc58 5f3d
000003e0: a7ae 89bf a0f0 533f 26da 24bf 6235 2cc0
000003f0: 4705 94be 7c32 e9be 957d 3bbf d3e5 9f3f

middle_layer.bias f4 [64]
-0.4271068 -0.47420797 -2.1708472 -0.94253576 -0.87042785 -1.1988438 -0.20937823 -0.15915178
-0.7457676 -0.28334802 -2.8217475 -0.9542568 -0.02505952 -0.7547398 -0.2694324 -0.5379129
0.024884976 -0.12066928 -0.9838637 0.58988047 7.596578 -0.25368723 -1.1506399 5.787852
-0.22046769 -2.6904867 -0.52768636 -0.73755425 -4.6924205 -0.44885603 -0.32213494 -0.35464594
1.3470473 -0.98611295 -0.896699 -0.3942958 -0.25701076 -0.44917896 -0.38531157 -0.35938907
-0.78168654 -0.33890072 -1.5055481 -0.725203 -0.31838006 -0.011167623 -0.52327335 -0.635336
-0.36347118 -0.35651168 -0.36288035 -0.3417873 -0.8630307 -0.9692682 -5.535634 -1.4633754
-0.1533943 7.2596345 -0.37110305 0.84991 -0.8199827 -0.3425097 9.852737 -0.36182916
00000000: bead dabe 63cb f2be 29ef 0ac0 064a 71bf
00000010: 5cd4 5ebf b773 99bf 3f67 56be aff8 22be
00000020: a0ea 3ebf fe12 91be 8397 34c0 2c4a 74bf
00000030: 9f49 cdbc a136 41bf 0bf3 89be a9b4 09bf
00000040: 94db cb3c 7521 f7bd 7ede 7bbf 6802 173f
00000050: 2b17 f340 4be3 81be 2b48 93bf 1536 b940
00000060: 48c2 61be ef30 2cc0 7416 07bf 5bd0 3cbf
00000070: 4f28 96c0 75d0 e5be dfee a4be 2794 b5be
00000080: 0c6c ac3f e671 7cbf 118e 65bf 24e1 c9be
00000090: ea96 83be c9fa e5be 8f47 c5be d801 b8be
000000a0: 9c1c 48bf 6584 adbe cdb5 c0bf e7a6 39bf
000000b0: b602 a3be 68f8 36bc 3ef5 05bf 61a5 22bf
000000c0: e518 babe b388 b6be 74cb b9be bffe aebe
000000d0: 94ef 5cbf f621 78bf ea23 b1c0 e34f bbbf
000000e0: 6513 1dbe ed4e e840 3801 bebe b493 593f
000000f0: 63ea 51bf 6e5d afbe d0a4 1d41 ac41 b9be

exit_layer.weight f4 [4, 64]
0.03151103 -0.065054655 1.3140455 0.58452386 -0.1272507 0.040300604 0.032402568 -0.33731136
-0.45675817 -0.05599715 0.21138792 -0.28751236 -0.039431155 -0.09726898 -0.010325195 0.070727706
-0.01855841 -0.010863304 0.31068924 -0.8146822 -0.84988767 0.39363492 0.24035163 -1.1293631
0.08234144 0.014358887 0.3106561 0.032851472 -1.1526096 0.13170867 -0.068451114 0.050322212
-0.13328555 -0.13957132 -0.18974358 -0.49621165 0.04543739 -0.0950385 0.1027551 0.032011606
0.09204695 0.026269574 -0.33470926 -0.4592576 -0.14288594 0.027830163 -0.23626365 -0.62586206
-0.24097739 0.009282694 0.29288217 -0.9066991 0.1576421 -1.0279434 0.01837128 1.3135717
-0.08153242 -1.493302 0.21533318 -1.6239834 0.17792633 0.05036517 -1.3570572 -0.2922427
-0.07662196 -0.28972715 1.4667813 0.64431137 -0.005183433 0.37475577 0.2123139 -0.4291461
0.21340773 -0.013249084 0.5333189 -0.5154637 0.045596775 -0.29183793 -0.28972116 -0.28646362
-0.09331616 0.044747755 -0.52914757 -0.55347884 -0.81444156 0.22511831 -0.54554176 -1.1042273
0.035941243 -0.97037214 0.15732959 -0.0056724665 -0.28029865 0.04311724 0.1938649 -0.025995465
-0.06445387 -0.58356047 0.026990667 -0.12322685 0.30948067 -0.23644191 0.016185852 -0.07161541
-0.011594569 0.09857259 0.21338303 0.13173427 0.02973254 -0.004500033 -0.09434093 0.064051524
-0.1563362 -0.14766265 0.14235713 1.0892675 0.4394422 -0.26860926 -0.43434086 1.2912278
0.019764557 -1.8950948 0.28308052 -1.610192 0.33078018 -0.03315544 -1.360975 -0.06343117
0.20636766 -0.06698537 1.4633601 0.36930624 0.31426916 0.010791564 0.17858018 -0.047962077
-0.2723313 -0.12264329 0.86018986 -0.29555678 0.061775904 0.38383564 0.0101316525 -0.42066258
-0.15587585 -0.028669894 -0.15053812 -0.61606497 -0.69029117 -0.2447988 0.064671986 -1.0557061
-0.09983075 0.27915817 -0.10573118 -0.036385052 -0.8474641 -0.20844926 -0.09754531 0.27309266
-0.4558506 0.009190208 -0.3312543 0.19318397 0.28416547 -0.058531016 -0.06459404 0.26285312
0.3290593 -0.13776354 -0.17824018 0.016959794 0.058135793 0.030243158 -0.09975349 0.30726
0.33994246 0.021436986 0.0071070055 0.9433765 0.23133458 -0.2714417 -0.014885638 1.2420423
-0.016085966 -1.2598495 0.10685092 -1.6592042 0.19907537 0.2465831 -1.3904095 0.19870067
0.039107934 -0.05712681 1.4089898 0.3340013 -0.1032294 -0.27931896 -0.17429808 0.13661176
0.13382833 -0.1953785 0.5613152 0.0487497 -0.053395927 -0.0037792097 -0.014406713 0.08835368
-0.09790244 -0.064586096 0.13131304 -0.9226092 -0.8176362 0.3222046 0.303881 -1.1150515
-0.07249656 -0.23956724 -0.04661214 0.095422216 -1.0147344 0.011031116 0.02210059 -0.043921348
-0.19257683 0.023450002 -0.21280073 -0.34918714 0.100453764 -0.24969769 0.41152927 0.07011224
-0.27941427 -0.11805385 -0.12314766 0.3099586 -0.009472907 0.043452885 -0.42846394 0.34375328
-0.24752192 0.31463388 0.11711025 0.3114754 -0.54282534 -0.072560556 -0.07078913 1.3123345
-0.011435935 -1.5843366 0.3334402 -1.6227492 0.20999078 0.045165382 -1.3487035 -0.31139946
00000000: b611 013d 603b 85bd a532 a83f 5ba3 153f
00000010: 024e 02be 3f12 253d 8eb8 043d 13b4 acbe
00000020: 35dc e9be 445d 65bd 1376 583e d234 93be
00000030: 9082 21bd f634 c7bd 022b 29bc b0d9 903d
00000040: cf07 98bc 00fc 31bc a912 9f3e 038f 50bf
00000050: 3d92 59bf 848a c93e bd1e 763e f88e 90bf
00000060: a1a2 a83d 8a41 6b3c 510e 9f3e 448f 063d
00000070: b688 93bf a3de 063e 1930 8cbd aa1e 4e3d
00000080: 027c 08be c9eb 0ebe 244c 42be 740f febe
00000090: 8f1c 3a3d 8ca3 c2bd 4471 d23d 9a1e 033d
000000a0: 1c83 bc3d 4a33 d73c 035f abbe d023 ebbe
000000b0: b150 12be 15fc e33c 19ef 71be 7f38 20bf
000000c0: c7c2 76be 7116 183c a7f4 953e 6f1d 68bf
000000d0: ee6c 213e a693 83bf 5e7f 963c 1e23 a83f
000000e0: 78fa a6bd 8524 bfbf 4d80 5c3e b0de cfbf
000000f0: 5232 363e b54b 4e3d 0db4 adbf d6a0 95be
00000100: f9eb 9cbd 1e57 94be 7dbf bb3f 97f1 243f
00000110: cad9 a9bb fddf bf3e d168 593e 0ab9 dbbe
00000120: 8e87 5a3e b012 59bc 9687 083f 6ef5 03bf
00000130: afc3 3a3d c86b 95be 5556 94be 5cab 92be
00000140: 8b1c bfbd 6c49 373d 3776 07bf cab0 0dbf
00000150: 3e7f 50bf 6a85 663e a0a8 0bbf 5257 8dbf
00000160: 2037 133d 4f6a 78bf 021b 213e 19e0 b9bb
00000170: 4e83 8fbe b49b 303d 8584 463e 71f4 d4bc
00000180: 6400 84bd 3864 15bf 881b dd3c 5c5e fcbd
00000190: 4074 9e3e d41d 72be 3198 843c 1aab 92bd
000001a0: 26f7 3dbc 6de0 c93d 1581 5a3e 59e5 063e
000001b0: a891 f33c 0375 93bb d135 c1bd 722d 833d
000001c0: 9916 20be e134 17be 11c6 113e 1e6d 8b3f
000001d0: 91fe e03e 2787 89be ed61 debe f446 a53f
000001e0: 48e9 a13c 7792 f2bf eeef 903e c51a cebf
000001f0: 055c a93e 00ce 07bd 6e34 aebf 34e8 81bd
00000200: 0b52 533e a02f 89bd 624f bb3f b515 bd3e
00000210: e3e7 a03e 1acf 303c b9dd 363e e273 44bd
00000220: 026f 8bbe 682c fbbd 6735 5c3f 3853 97be
00000230: bb08 7d3d 1b86 c43e 3bff 253c 1661 d7be
00000240: eb9d 1fbe 20dd eabc aa26 1abe 6fb6 1dbf
00000250: ecb6 30bf 89ac 7abe bf72 843d 6121 87bf
00000260: 1074 ccbd d2ed 8e3e 9789 d8bd 7e08 15bd
00000270: 68f3 58bf b973 55be d6c5 c7bd cdd2 8b3e
00000280: 4065 e9be 8792 163c 2a9a a9be 05d2 453e
00000290: 237e 913e 38be 6fbd e149 84bd af94 863e
000002a0: 767a a83e e311 0dbe 9884 36be 44ef 8a3c
000002b0: cc1f 6e3d 80c0 f73c 8f4b ccbd 2f51 9d3e
000002c0: f00c ae3e 9e9c af3c e2e1 e83b 1f81 713f
000002d0: f9e2 6c3e 68fa 8abe e4e2 73bc 3efb 9e3f
000002e0: b7c6 83bc c042 a1bf a8d4 da3d ce60 d4bf
000002f0: 6ada 4b3e 4880 7c3e f0f8 b1bf 3078 4b3e
00000300: a42f 203d cdfd 69bd c759 b43f 3802 ab3e
00000310: f069 d3bd e502 8fbe 327b 32be f4e3 0b3e
00000320: 4b0a 093e 4d11 48be 5ab2 0f3f c4ad 473d
00000330: b0b5 5abd 9eac 77bb 220a 6cbc c6f2 b43d
00000340: 1381 c8bd b745 84bd ed76 063e 1e30 6cbf
00000350: 9b50 51bf 00f8 a43e 4a96 9b3e 02ba 8ebf
00000360: 1479 94bd 1d51 75be 5fec 3ebd b96c c33d
00000370: d1e2 81bf dbbb 343c 4c0c b53c dfe6 33bd
00000380: dc32 45be 381a c03c 6fe8 59be a8c8 b2be
00000390: b4ba cd3d c0b0 7fbe f7b3 d23e 0297 8f3d
000003a0: 630f 8fbe 38c6 f1bd d734 fcbd e5b2 9e3e
000003b0: 4034 1bbc a7fb 313d a05f dbbe 6e00 b03e
000003c0: 6376 7dbe b117 a13e 80d7 ef3d b479 9f3e
000003d0: 9af6 0abf a19a 94bd e4f9 90bd 94fa a73f
000003e0: ca5d 3bbc 8bcb cabf adb8 aa3e 3fb6 cfbf
000003f0: d307 573e 56ff 383d 51a2 acbf c06f 9fbe

exit_layer.bias f4 [4]
-4.1880193 -3.9784744 -3.3339677 -4.194014
00000000: 4104 86c0 539f 7ec0 ba5f 55c0 5d35 86c0
