bestRun/learnedData.pth (torch, 74999 bytes, 6 tensors)

entry_layer.weight f4 [128, 8]
-0.66686654 -2.312423 -0.28661376 0.99189186 -0.09132709 -0.14937884 -0.40923777 -0.38893083
1.0496495 0.4851487 0.60121715 -0.4153573 0.13471325 0.2828333 -0.2047031 0.44669518
1.6023117 -0.3854858 0.6835767 -0.1743009 0.10860309 0.18958123 0.5522411 -0.95954347
-1.2886053 -1.9291031 0.71514666 0.92750114 0.36231464 -0.042921342 -0.16000387 -0.11276482
0.34110662 0.42704773 0.7961676 -0.8660913 0.49789923 0.20732588 -1.6027002 0.19606495
-1.029882 -2.7453482 0.85192525 1.4364513 0.09781023 0.19958122 0.4100903 -0.4580537
-0.34465382 -2.422768 0.26536605 0.25752828 0.37896478 -0.094724275 -0.3044058 0.0751227
-0.83675355 0.47851843 -0.14915447 0.25170124 0.03326764 1.1105114 -0.053118944 0.09001686
-0.1771251 -0.8373043 -0.100617 0.7865705 -0.3676949 0.3245074 0.13498138 0.24631816
0.27991095 -0.71399766 -0.4629115 -0.2260442 0.16060299 0.63805073 0.19024839 0.097621165
0.002475984 -0.5936601 0.36513183 0.9858734 -0.15000415 -0.53951615 -0.8185883 0.54506236
-0.21597883 0.020944929 -0.30924857 0.56197065 0.20892592 0.53135663 0.6192945 0.32743645
1.062177 -0.40301198 -1.6159679 0.27435318 0.5940667 -0.06985131 -0.3603764 -0.103133686
-0.004643058 0.002878188 1.8794495 0.6870793 -0.014585457 0.022616128 -0.39232126 -0.36870927
0.23455405 -0.4357958 -0.4574467 -0.27092627 0.57674915 0.7176711 0.10521349 0.31635046
1.2496578 -1.5627995 -0.59630376 0.2684973 -0.83049864 0.4147708 0.057747558 0.56556904
0.3776651 -0.3052228 0.2645739 -0.56954384 0.5261955 0.44433776 0.05685727 -1.050685
-0.06898421 -0.36221054 -0.2565491 -0.2037457 0.2784689 0.49759057 -0.15382305 0.089912996
-0.66998893 0.78457147 0.45520228 1.0629687 0.37975922 -0.29160288 0.03214841 -0.38961947
0.050230905 -0.32333225 -1.085307 1.7019835 -0.16091542 -0.39672247 0.12824443 -0.31180248
-0.5846835 -0.2532188 0.21709307 0.1721947 0.27711642 -0.027449349 0.105014905 -0.04307612
-0.27376336 -0.0377996 -0.11704665 -0.36638585 0.36972648 -1.1014076 0.07654672 -0.297184
0.03479341 0.02082886 -1.8414445 0.7182119 -0.01249937 0.1041416 0.35146675 -0.31012514
-1.5140716 0.84538406 -0.27404523 0.3082295 0.9318039 0.3014056 -0.12380526 -0.07975763
-0.36832878 -0.6969167 -1.409769 -0.7909142 0.07048983 0.009574207 -0.0124294115 0.17249309
0.120087296 -1.9697158 -0.35334343 -0.13646428 -0.32219505 -0.080086835 -0.123287864 0.578392
-0.021819293 0.07272984 -0.5183017 -1.3786614 -0.010383091 0.029048186 -0.5330865 0.34926495
-0.23425476 -0.29809105 -0.91814774 0.20753007 -0.1743739 0.08029864 0.40057638 -0.6679903
0.862905 2.140203 -0.7175652 -0.3423739 -0.036988046 0.37195697 0.016857015 -0.5679254
0.5637686 -0.33030757 -0.38155523 0.8091388 0.16791748 0.27011505 1.2096933 -0.58684874
-1.8325332 0.54170185 0.3087967 0.85940135 0.1662151 -0.14527147 -0.31151187 -0.17135906
-0.04720195 -4.7066097 -0.29683477 -0.22635959 -0.55609363 -0.4906838 0.046094287 -0.23161902
00000000: c4b7 2abf bdfe 13c0 0abf 92be a0ec 7d3f
00000010: b309 bbbd c4f6 18be 9d87 d1be f121 c7be
00000020: ea5a 863f 6965 f83e 5ee9 193f b6a9 d4be
00000030: 45f2 093e 87cf 903e b09d 51be 3bb5 e43e
00000040: 8d18 cd3f 655e c5be e2fe 2e3f ef7b 32be
00000050: 4c6b de3d 9521 423e ac5f 0d3f a4a4 75bf
00000060: 05f1 a4bf daec f6bf da13 373f b770 6d3f
00000070: 4e81 b93e 4ace 2fbd 0ed8 23be 3ef1 e6bd
00000080: 87a5 ae3e 00a6 da3e a4d1 4b3f 29b8 5dbf
00000090: a6ec fe3e 3c4d 543e 4825 cdbf 40c5 483e
000000a0: 2cd3 83bf c9b3 2fc0 c617 5a3f a3dd b73f
000000b0: bb50 c83d 055f 4c3e 5bf7 d13e 0486 eabe
000000c0: 7776 b0be a20e 1bc0 0fde 873e bfda 833e
000000d0: ac07 c23e cdfe c1bd 14db 9bbe eed9 993d
000000e0: 7b35 56bf 5e00 f53e f3bb 18be fcde 803e
000000f0: a643 083d 3d25 8e3f 4093 59bd c25a b83d
00000100: 4860 35be 9359 56bf 4910 cebd af5c 493f
00000110: 8242 bcbe d525 a63e 8f38 0a3e d43a 7c3e
00000120: 7d50 8f3e 8dc8 36bf bc02 edbe 2178 67be
00000130: 1c75 243e 4b57 233f 79d0 423e 9bed c73d
00000140: 1e44 223b 1cfa 17bf 8ff2 ba3e 3362 7c3f
00000150: b09a 19be bb1d 0abf 018f 51bf 3589 0b3f
00000160: 8e29 5dbe b394 ab3c d455 9ebe 4fdd 0f3f
00000170: adf0 553e fd06 083f 168a 1e3f c0a5 a73e
00000180: 6af5 873f 9657 cebe 09d8 cebf 0578 8c3e
00000190: c114 183f 340e 8fbd 4183 b8be c137 d3bd
000001a0: cb24 98bb fb9f 3c3b cd91 f03f 6ee4 2f3f
000001b0: d7f7 6ebc 7545 b93c 55de c8be 76c7 bcbe
000001c0: f02e 703e a120 dfbe 7436 eabe d9b6 8abe
000001d0: d5a5 133f 4bb9 373f 2c7a d73d b0f8 a13e
000001e0: c9f4 9f3f d009 c8bf 5da7 18bf 7a78 893e
000001f0: 8f9b 54bf d75c d43e b488 6c3d 22c9 103f
00000200: 525d c13e 2a46 9cbe 3b76 873e a0cd 11bf
00000210: c0b4 063f 3d80 e33e 2be3 683d d97c 86bf
00000220: 9847 8dbd a973 b9be 675a 83be b6a2 50be
00000230: 7a93 8e3e 31c4 fe3e ca83 1dbe 4e24 b83d
00000240: 6584 2bbf add9 483f 4610 e93e 5c0f 883f
00000250: cd6f c23e f94c 95be 0dae 033d 347c c7be
00000260: ecbe 4d3d ce8b a5be 57eb 8abf 98da d93f
00000270: 03c7 24be 351f cbbe 8252 033e 93a4 9fbe
00000280: d1ad 15bf e5a5 81be a54d 5e3e cf53 303e
00000290: 34e2 8d3e 75dd e0bc 0e12 d73d 9670 30bd
000002a0: b62a 8cbe c1d3 1abd 27b6 efbd ed96 bbbe
000002b0: ca4c bd3e edfa 8cbf 87c4 9c3d 8028 98be
000002c0: 8983 0e3d 49a1 aa3c 74b4 ebbf bcdc 373f
000002d0: 28ca 4cbc 3148 d53d 73f3 b33e b9c8 9ebe
000002e0: 19cd c1bf 176b 583f a84f 8cbe 42d0 9d3e
000002f0: b38a 6e3f d651 9a3e 9d8d fdbd f857 a3bd
00000300: 9795 bcbe 2269 32bf 5073 b4bf 5a79 4abf
00000310: f95c 903d 22dd 1c3c bba4 4bbc 07a2 303e
00000320: 54f0 f53d a61f fcbf 6ee9 b4be 4bbd 0bbe
00000330: c0f6 a4be 9104 a4bd 597e fcbd 8011 143f
00000340: 60be b2bc 62f3 943d 6caf 04bf fa77 b0bf
00000350: d71d 2abc 76f6 ed3c 5b78 08bf dbd2 b23e
00000360: 7be0 6fbe 649f 98be bb0b 6bbf c382 543e
00000370: 128f 32be 9d73 a43d 5918 cd3e 6a01 2bbf
00000380: 58e7 5c3f 16f9 0840 5ab2 37bf a24b afbe
00000390: c780 17bd 2571 be3e b917 8a3c 8f63 11bf
000003a0: 2453 103f 131e a9be 355b c3be b823 4f3f
000003b0: 8ff2 2b3e 854c 8a3e 3bd7 9a3f b83b 16bf
000003c0: 7390 eabf f9ac 0a3f 9a1a 9e3e ba01 5c3f
000003d0: 4b34 2a3e 0bc2 14be 7c7e 9fbe c078 2fbe
000003e0: d556 41bd 8c9c 96c0 bafa 97be cfca 67be
000003f0: 275c 0ebf e83a fbbe 5dcd 3c3d 892d 6dbe

entry_layer.bias f4 [128]
0.38333073 0.3209128 0.17741373 0.18907553 -0.13611083 0.15742685 0.3452412 -0.3622712
0.5400805 0.187422 0.75237864 -0.24623567 -0.47534236 0.00044202257 0.38573045 -0.15214214
0.35773817 0.3287451 0.77208126 0.23642619 0.2619667 -0.02078344 0.0007302276 -0.8829818
-0.2280588 0.613518 -0.02185712 0.006119224 0.10499151 -0.21255241 0.5831916 -1.0517085
-0.18970077 -0.8835153 0.40757105 -1.4433885 0.6178209 0.587295 -0.30344304 -0.033977795
-0.5899973 -1.0211364 0.3704598 0.549633 0.4800269 -0.04610036 -0.09862483 -0.82587963
-0.085925624 0.46765357 -1.328763 -0.24798907 -0.12336851 -1.0007911 0.22143574 0.27874574
0.046497207 0.030125959 0.33498925 0.23269106 -0.084725656 0.0626715 -0.518573 -0.06580013
0.3499498 0.7593461 -1.8557388 -0.02427836 -0.92873883 -0.11590792 0.476487 0.6104066
0.5983452 0.29421848 0.09115581 -0.05378859 -0.27087808 -0.08445425 0.13217698 0.253351
0.3003688 -0.23366584 0.067716025 0.051740263 -1.1022459 0.1338982 -0.19852872 0.8782981
-0.107507005 0.60870725 -0.59999615 0.33758348 0.6666524 -1.1268554 0.0026350175 0.16353865
0.09876346 -0.16596481 -1.1581179 0.44557157 0.14209835 0.33513016 -0.008869281 0.25505802
0.4137728 -0.6300656 0.57428014 0.2877847 -0.18941292 0.15734029 0.4082405 -0.1852556
-0.39684185 0.5529578 -1.4247444 0.51649773 -0.013918788 -0.2045438 -0.15294065 -0.012128437
-1.6143785 0.13235752 -1.2900696 0.38172358 -1.323547 -0.63223535 -0.1839957 0.4014118
00000000: ed43 c43e af4e a43e f2ab 353e 049d 413e
00000010: a360 0bbe 8134 213e 74c3 b03e 9c7b b9be
00000020: b742 0a3f 8eeb 3f3e e39b 403f 3425 7cbe
00000030: 1360 f3be 44bf e739 767e c53e 26cb 1bbe
00000040: 7529 b73e 4751 a83e 1ea7 453f b519 723e
00000050: 8020 863e 0842 aabc bf6c 3f3a 180b 62bf
00000060: 3f88 69be 840f 1d3f b40d b3bc c583 c83b
00000070: ca05 d73d 57a7 59be 0b4c 153f 629e 86bf
00000080: eb40 42be 0f2e 62bf 27ad d03e f4c0 b8bf
00000090: 8329 1e3f f758 163f e35c 9bbe 4d2c 0bbd
000000a0: 100a 17bf 99b4 82bf e8ac bd3e c0b4 0c3f
000000b0: 16c6 f53e bbd3 3cbd d1fb c9bd d96c 53bf
000000c0: c6f9 afbd 4a70 ef3e e814 aabf d9f0 7dbe
000000d0: a1a8 fcbd ec19 80bf 0dc0 623e c3b7 8e3e
000000e0: db73 3e3d b7ca f63c b683 ab3e 9146 6e3e
000000f0: a584 adbd ea59 803d 33c1 04bf 38c2 86bd
00000100: 9f2c b33e 8264 423f d988 edbf 69e3 c6bc
00000110: d4c1 6dbf 2261 edbd 1bf6 f33e 9b43 1c3f
00000120: 272d 193f cea3 963e e6af ba3d 6d51 5cbd
00000130: 88b0 8abe 5af6 acbd 6759 073e 39b7 813e
00000140: f0c9 993e 1946 6fbe b3ae 8a3d 99ed 533d
00000150: 6516 8dbf 9c1c 093e 1d4b 4bbe 25d8 603f
00000160: a22c dcbd 3dd4 1b3f 5999 19bf bed7 ac3e
00000170: bba9 2a3f cc3c 90bf 42b0 2c3b ad76 273e
00000180: 7f44 ca3d aef2 29be 353d 94bf f521 e43e
00000190: 3b82 113e 2e96 ab3e 7650 11bc f796 823e
000001a0: 07da d33e fb4b 21bf 0604 133f 8458 933e
000001b0: 76f5 41be d01d 213e e604 d13e a5b3 3dbe
000001c0: db2e cbbe a48e 0d3f 065e b6bf 3239 043f
000001d0: a10b 64bc ee73 51be 799c 1cbe 5ab6 46bc
000001e0: f4a3 cebf bb88 073e 0021 a5bf 4671 c33e
000001f0: fd69 a9bf 2dda 21bf 5e69 3cbe d985 cd3e

middle_layer.weight f4 [128, 128]
0.44810796 0.187858 0.09249629 -0.57807046 0.45382908 -1.0338646 0.14654952 0.49893627
-0.055845503 0.14005043 -0.195818 0.12857841 -2.698123 -0.6652266 0.10432008 -0.24937586
-0.4948025 0.10563767 -0.36009097 0.19894905 0.07664942 0.33531293 -0.19028185 1.3691669
0.3345632 0.37537053 0.10783949 0.013158846 -0.5989889 -0.24718851 -0.55792767 -1.4427024
-0.039793927 -1.9982016 0.060885254 -2.1872807 0.73741955 0.37334257 0.11337027 0.32080182
-0.732411 -0.5499016 0.18499783 0.31528372 0.49378374 -0.08426431 -1.0094538 -1.0382103
0.11287799 0.37751505 -0.13848849 -1.5910809 0.14708862 -2.9492457 0.11944633 0.6072711
-2.6153176 -0.82987064 -0.7517924 -0.0872932 -0.19525936 0.2524658 0.5761794 0.78290635
0.26424313 0.40013742 -0.5756877 -0.21506765 -1.4185691 0.5961228 0.7475031 0.24670026
1.2616329 -0.016525926 0.44093642 -0.5439614 -0.7947576 0.54563224 0.24072833 -0.057501156
-0.024733571 1.0433116 1.0636561 0.054992244 1.6793485 0.669372 -1.468465 1.2265215
-1.1180152 0.545084 -0.45778674 -0.57338613 0.7422753 -1.5672952 -0.01355212 0.22148603
-1.1387383 1.055861 -0.3229857 0.25805795 0.1418039 -0.024749396 0.29595053 0.20455115
-1.1800501 -2.057982 -0.030079175 0.6827514 -0.48582366 0.17891285 0.19691259 1.373093
0.48045245 -0.00042457264 -2.6064787 0.51821184 0.650951 -1.1086506 0.3507476 -0.7563856
-2.8314612 -0.00017769967 -1.012222 0.2770115 -0.7929057 0.8898341 -0.073230945 -0.042595472
0.029376904 -0.07170374 -0.06827412 0.043082193 -0.091560304 -0.014164187 -0.10660628 0.021788305
0.017545877 0.053120106 0.004823789 -0.0068912464 0.026830506 0.06426852 -0.028180333 0.082895406
-0.08571296 -0.07030239 -0.05352159 -0.047779787 -0.14234291 0.044740282 -0.084598444 -0.06919066
-0.09638422 0.005217383 -0.01798953 0.044634536 -0.073734894 -0.05239214 -0.08449304 0.049855195
0.043234266 -0.018078838 -0.072094314 0.07480147 -0.01928555 -0.07988833 -0.050850406 -0.09239628
-0.061910823 -0.022312485 -0.117066935 -0.11441292 -0.077389 -0.03719271 -0.04731004 -0.07670397
-0.1005324 -0.07683562 0.033333562 -0.04436688 -0.089920044 -0.010816378 -0.061107665 -0.08029083
-0.091449924 0.017297253 -0.07225475 -0.0101785865 0.022322481 -0.017937064 0.040556315 -0.060168993
0.040824108 0.038027294 -0.030874886 -0.064089395 0.011982992 -0.0535301 -0.058156695 -0.035789695
-0.08704063 0.025964186 0.027231218 -0.068323925 -0.1092411 0.025228418 -0.08941237 -0.040827982
0.02684592 -0.044460412 -0.020786949 -0.0794862 -0.08702874 -0.031649653 -0.087280855 0.047436412
-0.068602525 -0.090142295 -0.0737371 -0.059712984 -0.05061793 -0.011289972 -0.10796141 -0.0402438
0.0135614425 -0.020507753 -0.039273456 0.03181516 -0.031862337 -0.123835415 0.07454326 -0.082132965
0.038161762 -0.090164214 0.025042918 -0.102987394 -0.057745397 0.019515168 -0.020582886 -0.021699753
0.022951547 -0.07574162 -0.0014402088 -0.05757671 -0.07928405 -0.08547775 -0.05499382 -0.10827867
0.054779507 -0.10719328 0.082431085 -0.08074379 0.06051939 0.02162795 0.037298307 -0.10159291
00000000: 686e e53e d95d 403e b26e bd3d 6dfc 13bf
00000010: 495c e83e ad55 84bf 1411 163e 9374 ff3e
00000020: 41be 64bd 6169 0f3e 8484 48be 0faa 033e
00000030: 0cae 2cc0 4a4c 2abf c4a5 d53d 635c 7fbe
00000040: c156 fdbe 9058 d83d d85d b8be 4db9 4b3e
00000050: 5ffa 9c3d 23ae ab3e 3fd9 42be dc40 af3f
00000060: de4b ab3e 9130 c03e f3da dc3d 3398 573c
00000070: 5657 19bf fc1e 7dbe 59d4 0ebf 79aa b8bf
00000080: f5fe 22bd 12c5 ffbf d162 793d 68fc 0bc0
00000090: 87c7 3c3f c226 bf3e ac2e e83d 2340 a43e
000000a0: 4a7f 3bbf 5ac6 0cbf 1270 3d3e de6c a13e
000000b0: 39d1 fc3e c492 acbd c835 81bf 13e4 84bf
000000c0: 932c e73d a749 c13e edcf 0dbe 8aa8 cbbf
000000d0: 669e 163e 71c0 3cc0 47a0 f43d 1e76 1b3f
000000e0: 5d61 27c0 6772 54bf 7775 40bf c7c6 b2bd
000000f0: 12f2 47be 3343 813e 7e80 133f 8d6c 483f
00000100: e04a 873e d0de cc3e 4560 13bf b23a 5cbe
00000110: ac93 b5bf 819b 183f 5d5c 3f3f fe9e 7c3e
00000120: 307d a13f 6161 87bc 6bc2 e13e 0e41 0bbf
00000130: 3c75 4bbf 8eae 0b3f 7d81 763e 5586 6bbd
00000140: 0f9e cabc 3c8b 853f e225 883f 8c3f 613d
00000150: e4f4 d63f f75b 2b3f a9f6 bbbf a8fe 9c3f
00000160: 1f1b 8fbf a08a 0b3f 0663 eabe 6fc9 12bf
00000170: c105 3e3f 219d c8bf b609 5ebc 3ccd 623e
00000180: 2dc2 91bf 7426 873f 625e a5be 2c20 843e
00000190: 0b35 113e 3fbf cabc d486 973e db75 513e
000001a0: e20b 97bf fab5 03c0 9a68 f6bc ccc8 2e3f
000001b0: e1bd f8be ee34 373e 74a3 493e 83c1 af3f
000001c0: ddfd f53e 2d99 deb9 8cd0 26c0 88a9 043f
000001d0: baa4 263f 43e8 8dbf 3095 b33e 7da2 41bf
000001e0: a936 35c0 e454 3ab9 7e90 81bf 74d4 8d3e
000001f0: defb 4abf 2bcc 633f 1bfa 95bd 9778 2ebd
00000200: d5a7 f03c 69d9 92bd 4dd3 8bbd f476 303d
00000210: f883 bbbd e810 68bc 6554 dabd 637d b23c
00000220: 5fbc 8f3c 7894 593d e010 9e3b f7cf e1bb
00000230: a6cb db3c 379f 833d 71da e6bc 11c5 a93d
00000240: 478a afbd b3fa 8fbd 7439 5bbd bdb4 43bd
00000250: 57c2 11be 9641 373d f341 adbd d5b3 8dbd
00000260: 1765 c5bd 95f6 aa3b c75e 93bc b4d2 363d
00000270: 5202 97bd 2499 56bd b00a adbd f634 4c3d
00000280: 6a16 313d 121a 94bc 2fa6 93bd 8331 993d
00000290: bbfc 9dbc 7e9c a3bd 8448 50bd 433a bdbd
000002a0: 3496 7dbd acc8 b6bc cac0 efbd 5251 eabd
000002b0: 207e 9ebd 6257 18bd 2cc8 41bd f916 9dbd
000002c0: eee3 cdbd fe5b 9dbd c688 083d 0cba 35bd
000002d0: 0028 b8bd 2d37 31bc 084c 7abd 856f a4bd
000002e0: 194a bbbd f8b2 8d3c 4cfa 93bd 16c4 26bc
000002f0: a3dd b63c c0f0 92bc 611e 263d c373 76bd
00000300: 2e37 273d 82c2 1b3d 54ed fcbc 4d41 83bd
00000310: 5054 443c 6142 5bbd b735 6ebd 3798 12bd
00000320: 5c42 b2bd d8b2 d43c 0114 df3c 6aed 8bbd
00000330: ccb9 dfbd d4ab ce3c d51d b7bd 3e3b 27bd
00000340: faeb db3c 1f1c 36bd 6449 aabc a9c9 a2bd
00000350: 203c b2bd 11a3 01bd 4ec0 b2bd af4c 423d
00000360: 7b7f 8cbd 869c b8bd 7a03 97bd 9a95 74bd
00000370: bf54 4fbd 93f9 38bc df1a ddbd afd6 24bd
00000380: d030 5e3c e0ff a7bc 34dd 20bd 9d50 023d
00000390: 1582 02bd 6c9d fdbd 23aa 983d 5435 a8bd
000003a0: 824f 1c3d 04a8 b8bd ce26 cd3c 0eeb d2bd
000003b0: 7086 6cbd 46de 9f3c 719d a8bc aec3 b1bc
000003c0: e204 bc3c 6c1e 9bbd 63c5 bcba 8ed5 6bbd
000003d0: ad5f a2bd f50e afbd 3341 61bd 35c1 ddbd
000003e0: 7a60 603d 2688 dbbd a1d1 a83d 005d a5bd
000003f0: 2ee3 773d 192d b13c 1cc6 183d f20f d0bd

middle_layer.bias f4 [128]
0.11721303 -0.13073291 -0.2131492 -1.0405806 0.25726366 -0.07913039 -0.070056655 -0.15916528
-0.10026293 0.08802044 0.17178503 -0.03474078 0.097545214 0.09387867 0.049094208 0.51594025
-0.06248923 0.5410026 -0.040632144 -0.035302162 -0.2633342 0.09960073 -0.1024109 -0.049913507
-0.013313567 -0.04353085 -0.03509955 0.5609697 -0.056784194 -0.07015639 -0.09995935 0.113372646
0.056977823 0.09562696 -0.004091504 -0.12031298 0.10905125 0.7545224 -0.36943257 -0.0758874
0.12538135 -0.09603354 -0.20842846 -0.09411153 -0.050292246 -0.051976047 -0.09132415 0.844053
0.13706194 -0.55206746 0.16110842 0.006258586 -0.30344978 -0.023860807 0.29675812 -0.090706475
-0.116530046 -0.02275545 0.063049324 -0.12905519 -0.05060364 0.01276731 -0.08277253 0.19364795
0.009824649 -0.42218807 -0.20387213 -0.08318903 0.28089958 0.2080924 -0.026704717 0.24710463
0.0217356 0.016631274 0.053450674 -0.11353004 0.10217158 -0.037675224 0.006856102 -0.21237603
-0.09430684 0.35539 -0.13058119 0.002441024 -0.7401708 -0.089274414 -0.30870578 -0.374257
0.3345121 0.32793596 -0.34991628 -0.086468324 -0.09975905 0.4415032 -0.100660704 -0.11344901
-0.6205844 -0.11611599 0.18619172 0.052617546 -0.04218919 -0.03791355 0.16708463 -0.06713794
0.25120524 -0.06444273 -0.30712992 -0.031147098 -0.08474292 -0.17725016 -0.11277605 -0.070119865
0.001295542 -0.05555001 0.02393385 -0.08002177 -0.14623909 0.11101748 -0.1184911 0.79502773
0.026681172 -0.07661796 0.2560901 0.1529044 -0.08201778 0.6681442 -0.6901695 -0.33805898
00000000: 630d f03d d9de 05be c943 5abe bf31 85bf
00000010: 10b8 833e 1d0f a2bd dd79 8fbd 39fc 22be
00000020: a756 cdbd 0f44 b43d 6ae8 2f3e 594c 0ebd
00000030: c9c5 c73d 7643 c03d 0217 493d a914 043f
00000040: b5f4 7fbd 257f 0a3f e46d 26bd 0099 10bd
00000050: bed3 86be 78fb cb3d cebc d1bd 1b72 4cbd
00000060: 2621 5abc 684d 32bd 8cc4 0fbd b69b 0f3f
00000070: 8b96 68bd 27ae 8fbd 7db7 ccbd eb2f e83d
00000080: 9461 693d 11d8 c33d 0612 86bb a766 f6bd
00000090: 4356 df3d 6128 413f 4426 bdbe da6a 9bbd
000000a0: f863 003e 3cad c4bd 456e 55be 8cbd c0bd
000000b0: 3eff 4dbd d6e4 54bd 2808 bbbd db13 583f
000000c0: f759 0c3e 4b54 0dbf 9bf9 243e d314 cd3b
000000d0: c55d 9bbe bd77 c3bc aef0 973e 51c4 b9bd
000000e0: 4ea7 eebd a369 babc 0120 813d 0b27 04be
000000f0: c345 4fbd fb2d 513c a584 a9bd a64b 463e
00000100: 91f7 203c 0929 d8be dbc3 50be 035f aabd
00000110: 12d2 8f3e 2d16 553e dac3 dabc ff08 7d3e
00000120: db0e b23c 4f3e 883c 18ef 5a3d 7082 e8bd
00000130: 553f d13d 5651 1abd 27a9 e03b 1a79 59be
00000140: f223 c1bd aef5 b53e 13b7 05be 96f9 1f3b
00000150: d57b 3dbf 81d5 b6bd af0e 9ebe 9d9e bfbe
00000160: 2c45 ab3e 39e7 a73e 3a28 b3be 4e16 b1bd
00000170: 794e ccbd b50c e23e 3327 cebd f457 e8bd
00000180: 9fde 1ebf 38ce edbd 0ba9 3e3e 7f85 573d
00000190: 92ce 2cbd 3d4b 1bbd 3c18 2b3e 9e7f 89bd
000001a0: f99d 803e 8dfa 83bd 2240 9dbe 3328 ffbc
000001b0: b28d adbd 1181 35be 21f7 e6bd 019b 8fbd
000001c0: 2dcf a93a 6888 63bd ec10 c43c 74e2 a3bd
000001d0: b3bf 15be 225d e33d 76ab f2bd f086 4b3f
000001e0: 7992 da3c e1e9 9cbd 3e1e 833e f992 1c3e
000001f0: f0f8 a7bd 800b 2b3f f3ae 30bf 1116 adbe

exit_layer.weight f4 [4, 128]
-0.7788993 0.011148259 -1.5663975 0.7177342 -0.27703595 -0.22485752 -0.051244993 -0.71039224
0.051203348 -0.8690569 -0.27033073 -0.059194364 -0.29025117 -0.27024344 -0.44126976 -0.7193511
0.07245191 0.98456424 0.010955766 -0.14497882 -0.015506615 -0.19072613 -0.082592584 0.09382481
-0.018502453 -0.36892185 0.038364954 -0.65888023 -0.0028387897 -0.97895527 -0.041161228 -0.3747036
-0.16433296 -0.057124328 -0.18081404 -0.008099613 -0.23702303 -1.0392432 0.67066705 -0.055506207
-0.31005 -0.036171507 0.4789005 0.028198387 -0.026555521 0.030465191 -0.23105799 -0.9655634
-0.26781937 -0.81276923 0.30333534 0.017076457 -0.18039893 0.020381805 0.48697758 0.008253602
-0.035442043 -0.0181908 -0.8447826 0.07649381 -0.20268731 -0.30276072 0.08786578 -0.20964979
-0.008074554 -0.33578715 -0.39334124 0.05465229 0.032660242 -1.0705945 -0.025389895 -0.21147065
-0.023210034 0.03327901 0.0868667 -0.11295532 -0.24405642 0.045051098 -0.20481364 -0.0050168764
0.04163569 1.1656514 -0.7266137 0.042376947 -0.014268811 0.0635178 0.39246488 -0.1804426
-0.24098936 1.1038074 -0.27301127 -0.064205766 -0.4307004 -0.32184437 0.079230875 -0.42071262
1.123461 0.036915958 -0.23938985 -0.2788788 -0.8237955 -0.41231713 1.0722057 0.012899725
-0.25887427 -0.122896224 -0.4918328 -0.034824993 0.018961843 -0.41900548 0.0027039326 -0.28860992
-0.057687238 -0.002924064 1.2946128 -0.017114777 -0.1537298 2.5689952 -0.01184611 1.3616856
-0.0040835207 -0.04906413 -0.69638586 -0.3463967 -0.0399703 -1.3207908 0.8886819 0.6123552
-0.647142 0.08686795 1.516496 0.27361503 -0.20434007 -0.3254328 -0.041070014 -0.62740815
-0.0004937202 -1.2586493 -0.2565101 -0.047990248 -0.22863656 -0.29505795 -0.42857695 -0.63128984
0.056860708 0.948313 0.004901342 -0.086481504 0.23513915 -0.25981683 0.0009791399 0.04763337
0.07644311 -0.24166514 -0.0456251 -0.6067641 0.035486665 -0.9362285 -0.014788151 -0.88406724
-0.18136978 -0.13133734 -0.13081029 0.07030959 -0.49421537 -1.0405586 0.8199275 -0.061049815
-0.25157344 0.054101318 0.6547768 0.035206087 -0.044941235 0.04401148 -0.25016353 -0.9324638
-0.2903703 -1.0685637 0.99555004 -0.029498462 -0.27174705 -0.028471734 0.5242828 -0.06320447
0.010945243 -0.020614615 -0.89567846 0.012473546 -0.16763058 -0.20896319 0.019010518 -0.080861025
0.05265724 -1.2056842 -0.3169677 -0.030223105 0.38997185 -1.3436232 0.06835698 -0.33042428
0.05659225 0.06212414 0.014733244 0.007475332 -0.15868397 0.03243614 -0.29451782 0.4894168
0.055820048 1.1620743 -0.9478487 0.03663179 0.24475121 0.014132848 0.60445863 -1.0234746
-0.30614161 1.08947 0.15707156 -0.0261068 -0.28673387 0.664367 0.056844987 -0.3140452
1.2067018 -0.08153571 -0.26531652 -0.27613476 -0.939351 -0.4613038 1.018383 0.03332937
-0.31908903 -0.18296272 -0.34166405 0.073564716 -0.030112807 -0.5841427 -0.059958212 -0.32296675
0.011519714 -0.007022422 1.3057494 -0.014394695 -0.35163984 2.3689804 -0.04938817 1.3507986
0.031400297 0.05031899 -0.6682317 -0.2595112 -0.00767588 -1.3194414 1.1000739 0.4905847
00000000: f265 47bf 30a7 363c b77f c8bf 6ebd 373f
00000010: a8d7 8dbe 0d41 66be 45e6 51bd 44dc 35bf
00000020: 9aba 513d 837a 5ebf ca68 8abe ca75 72bd
00000030: cd9b 94be 595d 8abe 1cee e1be 6527 38bf
00000040: ab61 943d 670c 7c3f d07f 333c 5475 14be
00000050: 750f 7ebc b64d 43be 4d26 a9bd 3927 c03d
00000060: 7592 97bc 53e3 bcbe 9224 1d3d 60ac 28bf
00000070: fd0a 3abb d09c 7abf ad98 28bd 26d9 bfbe
00000080: e646 28be 33fb 69bd 5127 39be 3db4 04bc
00000090: 2ab6 72be ec05 85bf d6b0 2b3f 7a5a 63bd
000000a0: e0be 9ebe 9328 14bd 7232 f53e 4e00 e73c
000000b0: f78a d9bc 2392 f93c 779a 6cbe 2a2f 77bf
000000c0: 9f1f 89be a511 50bf c54e 9b3e ede3 8b3c
000000d0: 7fba 38be bef7 a63c 2055 f93e 1e3a 073c
000000e0: ad2b 11bd df04 95bc ac43 58bf c9a8 9c3d
000000f0: 438d 4fbe 7403 9bbe f9f2 b33d 6fae 56be
00000100: 224b 04bc 4bec abbe 0664 c9be 14db 5f3d
00000110: bfc6 053d 3e09 89bf 78fe cfbc c38b 58be
00000120: f822 bebc 924f 083d 2be7 b13d 1e55 e7bd
00000130: ede9 79be 8087 383d abba 51be 9c64 a4bb
00000140: 2f8a 2a3d 1134 953f 5b03 3abf 7393 2d3d
00000150: bbc7 69bc 9f15 823d 28f1 c83e f2c5 38be
00000160: eac5 76be 9049 8d3f 22c8 8bbe 507e 83bd
00000170: c384 dcbe c9c8 a4be cc43 a23d a567 d7be
00000180: 92cd 8f3f 3035 173d 9d22 75be 34c9 8ebe
00000190: 43e4 52bf 3b1b d3be 093e 893f 5e59 533c
000001a0: 2b8b 84be 04b1 fbbd 82d1 fbbe a7a4 0ebd
000001b0: de55 9b3c e387 d6be 7634 313b aec4 93be
000001c0: 7449 6cbd a7a1 3fbb dfb5 a53f 4a34 8cbc
000001d0: 586b 1dbe 6b6a 2440 3016 42bc b74b ae3f
000001e0: 0ecf 85bb 78f7 48bd 5846 32bf e95a b1be
000001f0: e6b7 23bd ac0f a9bf a880 633f 4fc3 1c3f
00000200: 19ab 25bf d3e7 b13d 8a1c c23f 4517 8c3e
00000210: 863e 51be 219f a6be 0839 28bd d29d 20bf
00000220: 006d 01ba 6c1b a1bf 4b55 83be 6c91 44bd
00000230: b41f 6abe d611 97be 706e dbbe 369c 21bf
00000240: c6e6 683d a4c4 723f 709b a03b 371d b1bd
00000250: 51c8 703e b606 85be 7c56 803a 351b 433d
00000260: 358e 9c3d 1177 77be 63e1 3abd e454 1bbf
00000270: 775a 113d acac 6fbf 004a 72bc 3b52 62bf
00000280: 00b9 39be 4c7d 06be 22f3 05be 79fe 8f3d
00000290: cc09 fdbe 0631 85bf c5e6 513f 5f0f 7abd
000002a0: 3cce 80be 5899 5d3d 749f 273f 4234 103d
000002b0: 4d14 38bd 6245 343d 6f15 80be f3b5 6ebf
000002c0: 6aab 94be b2c6 88bf 5edc 7e3f c2a6 f1bc
000002d0: 6e22 8bbe 8e3d e9bc 6637 063f 5871 81bd
000002e0: ad53 333c fbdf a8bc 2f4b 65bf d85d 4c3c
000002f0: 5aa7 2bbe 72fa 55be f2bb 9b3c 779a a5bd
00000300: 1eaf 573d dc53 9abf 9749 a2be 7296 f7bc
00000310: 64aa c73e d8fb abbf bffe 8b3d 5f2d a9be
00000320: 46cd 673d e275 7e3d b463 713c a1f3 f43b
00000330: 0d7e 22be c2db 043d 0acb 96be d794 fa3e
00000340: 90a3 643d dabe 943f 36a6 72bf 370b 163d
00000350: 10a0 7a3e 768d 673c cdbd 1a3f 3701 83bf
00000360: 98be 9cbe c173 8b3f 5ed7 203e eedd d5bc
00000370: c8ce 92be f513 2a3f 4ad6 683d 88ca a0be
00000380: 3475 9a3f 32fc a6bd 91d7 87be 8961 8dbe
00000390: 4f79 70bf 0330 ecbe 605a 823f 6184 083d
000003a0: a35f a3be 945a 3bbe 97ee aebe 19a9 963d
000003b0: 22af f6bc 608a 15bf be96 75bd e65b a5be
000003c0: 2fbd 3c3c 581c e6bb cc22 a73f bad7 6bbc
000003d0: 230a b4be 609d 1740 404b 4abd f8e6 ac3f
000003e0: 999d 003d 491b 4e3d 3c11 2bbf a7de 84be
000003f0: f385 fbbb 75e3 a8bf 39cf 8c3f eb2d fb3e

exit_layer.bias f4 [4]
0.37410694 0.10357565 0.18687184 0.4757147
00000000: f28a bf3e 781f d43d 555b 3f3e e190 f33e
