bestRun/learnedDataLast.pth (torch, 74999 bytes, 6 tensors)

entry_layer.weight f4 [128, 8]
0	0x3f18bc9b	0.5966279
1	0x3f68810c	0.9082191
2	0x3ed5b518	0.41739726
3	0x3ecf7d10	0.40525103
4	0xbf702933	-0.93812865
5	0xbecb5d3b	-0.39719567
6	0x3f2b2bab	0.6686351
7	0xbebac1d2	-0.36475998
8	0x3e0eaaf8	0.13932407
9	0xbfe90316	-1.8204067
10	0xbf000250	-0.5000353
11	0x3f18d5b3	0.5970108
12	0x40010942	2.01619
13	0x3e075efd	0.13219829
14	0xbd88739e	-0.06662677
15	0x3d005431	0.03133029
16	0xbfc03a71	-1.5017835
17	0x3f962c6b	1.1732305
18	0x3ef6df77	0.48217365
19	0x3f811790	1.0085316
20	0x3f85b7c4	1.0446706
21	0xbe837841	-0.25677684
22	0xbf4b9312	-0.79521286
23	0x3c36cfca	0.011157939
24	0x3fb19eca	1.3876584
25	0x3f8c6fc1	1.0971605
26	0xbee9d022	-0.45666605
27	0xbe957922	-0.2919398
28	0xbf9ee282	-1.2412875
29	0x3d063203	0.03276254
30	0xbe87d0d5	-0.26526514
31	0x3e207f41	0.15673544
32	0x3f249455	0.64288837
33	0x407ecd85	3.981294
34	0xbc8f8639	-0.017520057
35	0x3e46d043	0.19415383
36	0xbf2d5f01	-0.6772309
37	0x3b2d6b49	0.0026461652
38	0xbe5d51ba	-0.21613207
39	0xbebca298	-0.368428
40	0x3f6b9774	0.92027974
41	0xbe6fa83a	-0.23404017
42	0x3edc0ec5	0.42980018
43	0xbe91b86d	-0.28461018
44	0xbfc4c563	-1.5372738
45	0xbec50dab	-0.3848699
46	0xbef34bf8	-0.47518897
47	0xbebaaf51	-0.3646188
48	0xbdb34bab	-0.08754667
49	0xc0386349	-2.88106
50	0xbf507b95	-0.8143857
51	0xbe1791be	-0.1480169
52	0xbde74a8b	-0.11293515
53	0xbe8cd98b	-0.27509722
54	0xbd9a9556	-0.07548015
55	0xbf8228bb	-1.016868
56	0x3cadecb1	0.021231027
57	0x3fbaf569	1.4606143
58	0xbef3d8ca	-0.47626334
59	0x3fc7b272	1.5601332
60	0x3f3492f9	0.7053676
61	0x3e97f47d	0.29678717
62	0xbe034812	-0.12820461
63	0xbe6f598c	-0.23374003
64	0xbf81dbd5	-1.0145212
65	0xc048eacd	-3.139331
66	0xbec5ab43	-0.38607225
67	0xbf311701	-0.69175726
68	0x3f148eb7	0.58030266
69	0x3c7780f5	0.015106429
70	0xbdaf97a3	-0.08573844
71	0x3c006808	0.007837303
72	0x4006da75	2.1070836
73	0xc0c4017f	-6.1251826
74	0x3dddd592	0.10831751
75	0xbea06757	-0.31328842
76	0xbe4493cc	-0.19197005
77	0xba799568	-0.00095208595
78	0xbc33c11e	-0.010971336
79	0xbb80541e	-0.0039162776
80	0x3fff62ec	1.9952064
81	0x3faa81ad	1.3320824
82	0x3f2a741c	0.6658342
83	0x3eb100dd	0.3457097
84	0xbe5a2e8d	-0.2130682
85	0xbc77eace	-0.015131665
86	0xbcb1afef	-0.021690337
87	0xbc64558c	-0.013936412
88	0xbf65980a	-0.8968512
89	0x3eff48a7	0.49860117
90	0x3e175453	0.14778261
91	0xbf83374b	-1.0251249
92	0x3d89e0e9	0.06732351
93	0xbf2001c0	-0.6250267
94	0xbf0f471e	-0.5596789
95	0xbe9fdfa9	-0.31225327
96	0x3e01de75	0.12682517
97	0xc01ca156	-2.4473472
98	0xbe2186a1	-0.15774013
99	0xbe4c4582	-0.1994839
100	0x3ff6eee1	1.929165
101	0x3e148cf7	0.14506899
102	0x3ce048e9	0.027378516
103	0xbd582f5a	-0.052779533
104	0x3e60eaef	0.2196462
105	0xbd62c5ef	-0.055364545
106	0xc01e669e	-2.4750133
107	0x3f4ad06b	0.7922427
108	0xbf3d1713	-0.73863333
109	0xbd2d8081	-0.04235888
110	0x3efa64b4	0.48904955
111	0xbe88c716	-0.2671439
112	0x3e99bb3d	0.30025664
113	0xbfd0a047	-1.6298913
114	0x3ec7fa05	0.39057937
115	0xbf43de0b	-0.76510686
116	0xbf1f54cb	-0.6223876
117	0x3ebfe105	0.37476364
118	0xbf8af5ad	-1.0856224
119	0x3e9a2ed7	0.3011386
120	0x3f05ca47	0.52261776
121	0xbf852459	-1.0401717
122	0x3e39d024	0.18145806
123	0x3d8d5fdd	0.0690305
124	0x3deed463	0.11661603
125	0x3eeb5787	0.45965216
126	0xbe8bf515	-0.2733542
127	0xbe9d42f9	-0.3071516
128	0xbf11bbd6	-0.5692724
129	0xc0aa9bdf	-5.331527
130	0xbf0a8369	-0.54106766
131	0xbd2b03ec	-0.041751787
132	0xbddd33b0	-0.10800874
133	0xbce117b5	-0.027477125
134	0x3d911ebb	0.070859395
135	0x3d58efd8	0.052963108
136	0x3ffd0b20	1.976902
137	0xc07b8de9	-3.9305365
138	0x3eace239	0.33766344
139	0xbf596ea8	-0.84934473
140	0x3efd1b13	0.49434718
141	0x3d143f1b	0.036192995
142	0xbd77cfd3	-0.06050093
143	0x3d2ff02d	0.04295366
144	0xbcf5085f	-0.029911218
145	0xbecd03f4	-0.40042078
146	0xbfadff73	-1.3593582
147	0x3fee5019	1.8618194
148	0x3f52cf4a	0.8234755
149	0xbe8cbb76	-0.2748677
150	0x3c124fbb	0.008930142
151	0xbe07ad52	-0.1324971
152	0x3f8c2087	1.0947427
153	0xc00aa929	-2.1665747
154	0xbec1a22f	-0.3781905
155	0x3f875260	1.0572014
156	0x3f287f3d	0.6581915
157	0xbe7ca9d9	-0.24674167
158	0x3d9ce2af	0.07660424
159	0x3e1a3fc7	0.15063392
160	0x401592a4	2.3370752
161	0xbf69ebeb	-0.9137561
162	0xbe217891	-0.15768649
163	0x3e81bffa	0.2534178
164	0x3e9099b5	0.2824227
165	0x3d21f30e	0.039538436
166	0xbda9ff90	-0.08300698
167	0xbe7ebadc	-0.24875969
168	0x3ff52945	1.915322
169	0x3fa458ee	1.2839639
170	0x3f405eac	0.7514446
171	0xbf1ea0db	-0.61964196
172	0x3f7cdded	0.9877613
173	0x3e139854	0.14413577
174	0xbd1456e2	-0.03621567
175	0xbe1d0ef8	-0.15337741
176	0x3f854c06	1.0413826
177	0xc08a4d2f	-4.321922
178	0xbfdcf5b9	-1.7262489
179	0x3e9c4916	0.3052451
180	0xbf857a67	-1.0427979
181	0xbda25065	-0.0792549
182	0x3e79ef0e	0.24407598
183	0x3e02d75f	0.1277747
184	0x3f5112ba	0.816692
185	0x3f207df6	0.626922
186	0xbfa6bb13	-1.302584
187	0x3f886918	1.0657072
188	0x3c3f4df5	0.011676301
189	0xbea2dfa1	-0.3181124
190	0xbeba8cfe	-0.36435694
191	0x3e08213b	0.13293926
192	0xbf9dbe95	-1.2323786
193	0xbf6bb86e	-0.9207829
194	0xbf40c072	-0.7529365
195	0x3ee82a20	0.4534464
196	0xbca09e19	-0.019606637
197	0xbfa5cb15	-1.2952601
198	0x3d99d46a	0.07511218
199	0xbde3d03b	-0.11123701
200	0xbf6b0ff5	-0.91821223
201	0xc109c88c	-8.611462
202	0x3f8a9d77	1.0829304
203	0x3eb3a3fb	0.35086045
204	0xbe21a558	-0.1578573
205	0x3f121a54	0.57071424
206	0xbea58f58	-0.32335925
207	0xbea56a03	-0.32307443
208	0x3fbd616e	1.4795358
209	0xc08f33c4	-4.475069
210	0x3dd585f9	0.10425944
211	0x3dae03ea	0.0849684
212	0x3f123d76	0.5712503
213	0xbd6f3b4e	-0.058406167
214	0x3e7f68dc	0.24942344
215	0x3b52f547	0.0032189654
216	0x3fd98f07	1.6996773
217	0xbf2c4f1b	-0.67308205
218	0x3f0e5b00	0.55607605
219	0x3fbeafa4	1.4897351
220	0xc0049948	-2.0718555
221	0xbe533841	-0.20626928
222	0xbdcc3a67	-0.09972077
223	0xbcfc3479	-0.03078674
224	0xbd84656a	-0.06464656
225	0xc055f556	-3.343099
226	0xbfa3d8ea	-1.2800572
227	0x3f6e3dd1	0.93063074
228	0xbf73ac45	-0.9518474
229	0xbe50e4d0	-0.20399785
230	0x3d9d367a	0.07676406
231	0x3d03d3bb	0.032184344
232	0xc014e4be	-2.3264613
233	0xc00ff460	-2.2492905
234	0xbdfb8715	-0.12281624
235	0x3ebb2368	0.3655045
236	0xbdeb764c	-0.11497173
237	0xbd8616e3	-0.06547334
238	0xbfeabf38	-1.8339605
239	0x3d69b126	0.057053708
240	0xbf8e1ef7	-1.11032
241	0x3eea087d	0.457096
242	0x3df8af78	0.12142843
243	0xbe7c0d50	-0.24614453
244	0x3ed04cdf	0.40683648
245	0xbc30137b	-0.010746832
246	0xbf62fc09	-0.88665825
247	0xbfa96011	-1.3232442
248	0x3e898d6e	0.26865715
249	0x3e5c1c93	0.21495275
250	0xbf65296c	-0.8951633
251	0xbf0bc148	-0.545918
252	0x3f1d92cb	0.61552113
253	0x3f06986a	0.52576315
254	0xbf3f7466	-0.74786985
255	0xbe35432c	-0.17701405

entry_layer.bias f4 [128]
0	0x3e397fb9	0.18115129
1	0xbf4f5cab	-0.81000775
2	0xbf3ec48b	-0.7451865
3	0xbfd2d052	-1.6469824
4	0x3f3fccd6	0.7492193
5	0x3f7f7513	0.99788016
6	0x3d61a8c3	0.055092584
7	0x3f05f54d	0.52327424
8	0x3d3d7e46	0.046263
9	0x3ea15429	0.31509522
10	0x3f64104f	0.89087385
11	0xbf5ea081	-0.8696366
12	0xbf681f8f	-0.90673155
13	0x3dbd347b	0.092385255
14	0xbe8a7d5e	-0.27048773
15	0xbfaab8c6	-1.3337638
16	0xbe8f9d3a	-0.28049642
17	0xbf099b6b	-0.53752774
18	0x3f212fdf	0.6296367
19	0xbc183a83	-0.009291294
20	0x3f1c8acb	0.6114928
21	0x3f3eb9df	0.74502367
22	0xbf39c061	-0.7255917
23	0x3eac0053	0.33593997
24	0xbef471ca	-0.47743064
25	0x3ea8f740	0.33001137
26	0x3dc111ee	0.09427248
27	0xbec87391	-0.3915067
28	0xbf359221	-0.709261
29	0xbdf623b8	-0.120185316
30	0xbf2c4061	-0.67285734
31	0xbf5ddf33	-0.866687
32	0x3f67de12	0.9057323
33	0x3f79ab9f	0.975275
34	0xbf4a40b4	-0.7900498
35	0xbeb3373d	-0.3500308
36	0xbf922975	-1.1418902
37	0x3cc37feb	0.023864707
38	0x3ee7b70f	0.4525685
39	0x3ed8cb81	0.4234276
40	0xbd8e5620	-0.06950021
41	0x3f885456	1.0650737
42	0x3edc6859	0.4304836
43	0xbe8be976	-0.27326554
44	0x3ef63323	0.4808589
45	0xbe3a8522	-0.18214849
46	0xbf8bf1c1	-1.0933152
47	0x3ddb9ac5	0.10722879
48	0x3f217fa2	0.6308538
49	0x3f2ddc1a	0.67913973
50	0xbe6d13cb	-0.23152082
51	0xbe53e46a	-0.20692602
52	0xbef45747	-0.47722837
53	0xbf0faa76	-0.5611948
54	0x3ebbdd70	0.3669238
55	0xbefc7c2f	-0.49313495
56	0xbf0f48ab	-0.5597026
57	0xbed8d1b0	-0.4234748
58	0xbe4466b4	-0.19179803
59	0xbef2a441	-0.4739094
60	0xbef25533	-0.47330627
61	0x3f214c3a	0.6300694
62	0x3eeee247	0.4665701
63	0x3f8ea1b6	1.11431
64	0x3c4e596e	0.012594564
65	0xbb971fd4	-0.0046119485
66	0x3f5a3b50	0.85246754
67	0xbdbbb5c3	-0.09165528
68	0x3f19e1c1	0.601101
69	0x3f26ef03	0.6520845
70	0xbf2b4619	-0.66903836
71	0x3ddf0d1f	0.108911745
72	0xbf9135fa	-1.1344597
73	0x3dd3b0a6	0.103364274
74	0xbe56ea8e	-0.20987913
75	0xbe3c59b0	-0.18393588
76	0xbf0bba8f	-0.5458154
77	0x3e90270d	0.28154793
78	0xbf3649e3	-0.7120649
79	0xbf4f1398	-0.8088927
80	0xbea01318	-0.31264567
81	0xbe95846e	-0.29202598
82	0xbf8b8a9a	-1.0901673
83	0x3edc5d8a	0.43040115
84	0xbe3d47fc	-0.18484491
85	0xbf874a4b	-1.0569547
86	0x3f5955bb	0.8489644
87	0xbe3c42d8	-0.18384874
88	0xbea0218f	-0.31275603
89	0xbe633dfa	-0.22191611
90	0xbe757ba2	-0.23972943
91	0x3fa42db5	1.2826449
92	0x3f04b24c	0.5183456
93	0x3d9b9bb1	0.07598055
94	0x3f0bf0f1	0.5466452
95	0x3eae2026	0.34008902
96	0xbd77dca0	-0.06051314
97	0xbf999122	-1.1997416
98	0x3e88bc2f	0.26706073
99	0x3f340be0	0.7033062
100	0xbf24d3f8	-0.6438594
101	0xbe7eb841	-0.24874975
102	0x3f3925bc	0.72323203
103	0x3e2eb4ea	0.170612
104	0x3dcb2046	0.09918265
105	0xbedb33f6	-0.4281308
106	0x3e480bb1	0.1953571
107	0x3eae645a	0.34060937
108	0xbe6c3e48	-0.23070633
109	0xbc9470ab	-0.01812013
110	0xbe3b879b	-0.18313448
111	0xbefeab2b	-0.49739966
112	0x3f1b7ed3	0.60740393
113	0x3e809250	0.25111628
114	0xbd991bc8	-0.07476002
115	0x3e3f58a9	0.18686165
116	0xbf537f72	-0.8261634
117	0x3ed70a3b	0.41999993
118	0xbd9a5c1b	-0.07537099
119	0xbf2df6f3	-0.6795494
120	0xbe67e0d0	-0.22644353
121	0x3d2ff9d2	0.042962857
122	0x3cded2e2	0.027200166
123	0xbdaa70d7	-0.08322304
124	0xbf054132	-0.52052605
125	0x3e0ac3e6	0.13551292
126	0xbc4f9784	-0.0126704015
127	0x3eb4359f	0.3519716

middle_layer.weight f4 [128, 128]
0	0xbd975e49	-0.0739103
1	0x3f504f9c	0.81371474
2	0x3f0fc613	0.5616161
3	0xbf39c3ce	-0.725644
4	0x3dad2e5b	0.08456107
5	0xbf0ced52	-0.5504962
6	0x3da44a90	0.08022034
7	0xbe8aebdb	-0.27133068
8	0x3e8ea812	0.27862602
9	0x4062e1c6	3.54503
10	0x3f169d44	0.5883372
11	0x3f15db48	0.5853772
12	0x3f81754c	1.0113921
13	0x3d33b78d	0.04387622
14	0xbca83f49	-0.02053799
15	0xbf2b329d	-0.66874105
16	0x3e86a0ec	0.2629465
17	0xbf52878a	-0.82238066
18	0xbf208428	-0.62701654
19	0xbe89228d	-0.26784173
20	0xbf8d1dfc	-1.1024776
21	0x3f47a26b	0.77982205
22	0xbf4b60d4	-0.79444623
23	0xbf5cdb4f	-0.8627214
24	0xbdb1117f	-0.08645915
25	0x3f8675e9	1.0504733
26	0x3f25f058	0.6481986
27	0x3f95a085	1.1689612
28	0xbf20f4a8	-0.62873316
29	0xbe83eda8	-0.25767255
30	0x3f5ee6b5	0.8707078
31	0xbd6427fd	-0.0557022
32	0x3f89475f	1.0724906
33	0x3f5c529a	0.8606354
34	0xbe5b1493	-0.21394567
35	0x3e392c15	0.18083222
36	0x4005a736	2.0883307
37	0x3eb02596	0.34403676
38	0xbe5c18f1	-0.2149389
39	0x3eef5fe8	0.46752858
40	0x3ddbf8e8	0.107408345
41	0xbec95954	-0.39325964
42	0x3eebfdb7	0.46092007
43	0xbdd568d0	-0.10420382
44	0xbe999d87	-0.30002996
45	0x3eee7460	0.46573162
46	0xbe0af642	-0.13570502
47	0xbca43877	-0.020046456
48	0x3e9fdc25	0.31222644
49	0x3cfddf54	0.03099028
50	0x3d2ea795	0.042640287
51	0x3d6205fd	0.055181492
52	0x3ef667a6	0.48125952
53	0x3f4e7a59	0.8065544
54	0xbed9c654	-0.42534125
55	0x3ebae9f3	0.36506614
56	0xbf8dda1e	-1.1082189
57	0xbd190985	-0.037362594
58	0x408ede6d	4.4646516
59	0xbf60d1d8	-0.87820196
60	0xbe23827a	-0.15967742
61	0xbf4b616e	-0.7944554
62	0xbee14266	-0.4399597
63	0xbf03469c	-0.51279616
64	0xbc383904	-0.011244062
65	0xbe9b2f29	-0.30309418
66	0x3f244bff	0.6417846
67	0xbe2a3169	-0.16620411
68	0x3e103249	0.14081682
69	0x3e27333a	0.16328135
70	0xbf420ce1	-0.758009
71	0xbecc46e5	-0.39897838
72	0x3fae7215	1.3628565
73	0x3bfcd58c	0.0077158865
74	0x3dd6d15d	0.104891516
75	0x3e204e16	0.15654787
76	0x3f907e5e	1.1288564
77	0xbddbd354	-0.10733667
78	0x3fa0874a	1.2541287
79	0xbf08509d	-0.53248006
80	0xbded20c7	-0.115785174
81	0x3e67a5ea	0.22621885
82	0xbf9ff2c7	-1.2495965
83	0xbefea45a	-0.49734765
84	0x3e81c45c	0.25345123
85	0xbe87a4eb	-0.2649301
86	0xbe105de8	-0.14098322
87	0x3f15a064	0.5844786
88	0x3f73c50f	0.9522256
89	0x3e8b8dd0	0.27256632
90	0x3f1d43da	0.6143166
91	0xbf6eb5ba	-0.9324604
92	0xbf8cf6f4	-1.1012864
93	0xbf8064cd	-1.0030762
94	0xbf9d38cf	-1.2282962
95	0xbe6ec967	-0.23319016
96	0x3f0f6342	0.5601083
97	0xbf5a0e9e	-0.85178554
98	0x3f5df711	0.8670512
99	0x3fe87ed3	1.8163704
100	0xbf5ab6a1	-0.8543492
101	0x3ef52356	0.47878522
102	0xc03063ad	-2.7560837
103	0xbf249c89	-0.64301354
104	0xbba6934f	-0.0050834785
105	0x3ecfc707	0.40581533
106	0x3eea523f	0.45765874
107	0x3dc488ce	0.09596406
108	0x3f066dd0	0.5251131
109	0x3ec08fa6	0.37609595
110	0x3f47a450	0.77985096
111	0x3ed28a5c	0.41121185
112	0x3e800b68	0.25008702
113	0xbe9b50c0	-0.30335045
114	0xbd9e55af	-0.077311866
115	0xbe89dadc	-0.2692479
116	0x3ea573e8	0.32314992
117	0x3e67fa4f	0.22654079
118	0xbf8d4977	-1.1038045
119	0xbf9cf3e7	-1.2261933
120	0x3eb18af9	0.3467634
121	0x3efc801c	0.4931649
122	0xbe45cceb	-0.19316451
123	0x3f208168	0.6269746
124	0xbe9dba28	-0.30806088
125	0xbee1a40b	-0.44070467
126	0x3f153bca	0.58294356
127	0xbf566505	-0.83747894
128	0x3d5d4439	0.05402014
129	0x3fa556ba	1.2917092
130	0x3e9a5168	0.30140233
131	0x3e939f7a	0.28832608
132	0x3f1a608b	0.6030356
133	0x3cde7c28	0.027158812
134	0xbde477fa	-0.11155696
135	0xbe7f582b	-0.24935977
136	0x3d9bf291	0.07614625
137	0x40794006	3.8945327
138	0x3d8bf221	0.06833292
139	0x3f552d19	0.8327194
140	0x3f87aee8	1.0600252
141	0xbefd7f59	-0.4951122
142	0x3e9359e4	0.2877952
143	0xbe8a490c	-0.27008855
144	0x3ea2326f	0.31679103
145	0xbf372a6a	-0.71549094
146	0xbd500917	-0.05078992
147	0x3d492562	0.049107917
148	0xbf8f8ef5	-1.1215502
149	0x3f36291c	0.7115648
150	0xbed4070c	-0.41411626
151	0xbe5d78a7	-0.21628056
152	0x3e842595	0.25809923
153	0x3f82280c	1.0168471
154	0x3ef802b8	0.48439574
155	0x40027e34	2.0389528
156	0xbdd63ac7	-0.1046043
157	0xbf4a4527	-0.7901177
158	0xbe81f587	-0.25382635
159	0x3ea012f2	0.31264454
160	0x3f163f0a	0.5868994
161	0x3e5f6dd1	0.21819235
162	0xbf4d19ef	-0.80117697
163	0x3db5bc0a	0.08873756
164	0x3f9c6057	1.22169
165	0x3e8850c8	0.2662413
166	0xbf0414ae	-0.51594055
167	0x3f6621ea	0.898955
168	0xbe1a7797	-0.15084682
169	0xbf32fa66	-0.6991333
170	0xbe400374	-0.18751317
171	0xbe3371bf	-0.1752386
172	0xbdaad335	-0.08341066
173	0x3e4246bf	0.189723
174	0x3ea46b48	0.321131
175	0x3d8825f3	0.06647863
176	0xbe003a4a	-0.12522236
177	0xbe061e6d	-0.13097544
178	0xbe6423b0	-0.22279239
179	0x3f477031	0.77905566
180	0x3f0c6aaa	0.54850256
181	0x3e3d1891	0.18466403
182	0xbef878db	-0.48529705
183	0x3f2009ac	0.6251476
184	0xbefc9b0d	-0.49337044
185	0x3daf996f	0.08574187
186	0x4079af21	3.901314
187	0xbf1d1dee	-0.61373794
188	0x3e079088	0.13238728
189	0xbfab9837	-1.3405827
190	0x3dd29a74	0.10283366
191	0xbf076da0	-0.5290165
192	0xbe338160	-0.17529821
193	0x3e8c5c44	0.27414143
194	0x3e0afd99	0.13573302
195	0x3f5ac2ba	0.8545338
196	0xbe89a84a	-0.26886207
197	0xbe539f5e	-0.20666263
198	0xbf38f057	-0.7224173
199	0x3d9eb254	0.07748857
200	0x3fa28dca	1.269952
201	0xbfa9b2bf	-1.3257674
202	0x3f985e0e	1.1903703
203	0xbec32dda	-0.3812092
204	0x3f116857	0.56799835
205	0xbf0ac1f8	-0.5420222
206	0x3f954488	1.1661539
207	0x3e4b5993	0.19858389
208	0x3eff889d	0.49908915
209	0x3eea3fdd	0.4575185
210	0xbf839565	-1.0279967
211	0x3ed1fb57	0.4101207
212	0x3dfaf467	0.12253647
213	0xbedb866c	-0.42875993
214	0x3da77710	0.08177006
215	0x3f6cb950	0.92470264
216	0x3e093b47	0.13401519
217	0x3e3ae694	0.18252021
218	0x3e50c506	0.20387658
219	0xbf84c9bc	-1.0374064
220	0xbfafae60	-1.372509
221	0x3e7012fb	0.2344474
222	0xbf429ec6	-0.7602352
223	0xbed64d7d	-0.41855994
224	0xbe0e08f3	-0.13870601
225	0xbf0047c9	-0.50109535
226	0xbcbdfadb	-0.023190906
227	0x3fa9fe19	1.328067
228	0xbf55d5c5	-0.8352931
229	0x3f3ab5b8	0.7293353
230	0xc0278e78	-2.6180706
231	0xbf3db276	-0.74100435
232	0xbf86b9ef	-1.0525492
233	0x3fa41d65	1.282147
234	0x3f08617b	0.53273743
235	0x3d6dd237	0.058061805
236	0x3e971e31	0.29515222
237	0xbfe53213	-1.7905906
238	0x3f235453	0.63800544
239	0xbea7959a	-0.32731324
240	0x3e8119d6	0.25215024
241	0x3e979fa0	0.29613972
242	0xbda4ec0c	-0.08052835
243	0xbf3742fc	-0.71586585
244	0xbf100c94	-0.5626919
245	0x3dee0b2d	0.11623225
246	0xbf960fb0	-1.1723537
247	0xbfb50342	-1.4141619
248	0x3ef2c608	0.4741671
249	0x3e6211be	0.2207708
250	0xbe010de3	-0.12602954
251	0x3f325651	0.6966296
252	0x3f12a3e7	0.57281345
253	0x3ea5b595	0.323651
254	0x3edb8e25	0.42881885
255	0x3dbe7876	0.0930032

middle_layer.bias f4 [128]
0	0xbeaa6e12	-0.33287102
1	0xbe92f174	-0.2869984
2	0x3c082242	0.008308949
3	0x3d6abc3d	0.057308424
4	0xbd2065f1	-0.03915972
5	0xbd80c231	-0.06287039
6	0x3bfcb87b	0.0077124215
7	0xbe090808	-0.1338197
8	0xbc525601	-0.012837888
9	0xbe9f95ba	-0.3116892
10	0x3d972af5	0.0738124
11	0xbdab133f	-0.0835328
12	0xbd898227	-0.06714278
13	0x3e227b8e	0.15867445
14	0xbefb6aec	-0.49105012
15	0xbdb1028d	-0.08643065
16	0x3eb549bd	0.3540782
17	0x3f062ab1	0.5240889
18	0x3db88930	0.090105414
19	0xbe3f37da	-0.1867365
20	0x3dc7a03b	0.097473584
21	0xbf683066	-0.9069885
22	0x3f5c7d4f	0.86128706
23	0x3dde43c9	0.10852773
24	0x3e17d57d	0.14827533
25	0xbdaf00e5	-0.085450925
26	0x3e246a66	0.16056213
27	0x3e1f700d	0.15570088
28	0xbd92bdbf	-0.071650974
29	0xbbee465c	-0.007271571
30	0x3d01ea02	0.031717308
31	0xbd863b57	-0.06554287
32	0xbd798533	-0.060918044
33	0x3dc4b7a6	0.09605341
34	0x3fcb934b	1.5904325
35	0xbd3cb211	-0.046068255
36	0xbdc8bb56	-0.098013565
37	0x3dac2b18	0.08406657
38	0xbefde015	-0.49585024
39	0xbdcaf5fd	-0.099102
40	0xbeb35d12	-0.35031945
41	0xbdcedea2	-0.101010576
42	0xbe0a93f6	-0.13533005
43	0xbfaad812	-1.334719
44	0xbc51f542	-0.012814822
45	0xbdf05bcb	-0.11736258
46	0xbde4e30a	-0.11176117
47	0xbd3e04b7	-0.046391215
48	0xbc880b4c	-0.01660695
49	0xbe02112c	-0.12701863
50	0xbeeb0fe4	-0.4591056
51	0xbe40503e	-0.1878061
52	0xbe07a8e8	-0.13248026
53	0xbd725317	-0.059161272
54	0xbce77eb0	-0.028258651
55	0x3ec4f3a8	0.38467145
56	0xbe3bf038	-0.18353355
57	0xbd83877b	-0.06422325
58	0x3dd83eba	0.10558839
59	0xbf851589	-1.0397197
60	0xbda70684	-0.0815554
61	0xbeeb1411	-0.45913747
62	0x3d7013f2	0.05861277
63	0xbe030c0b	-0.12797563
64	0xbd8a13db	-0.067420684
65	0xbcf7b470	-0.030237406
66	0xbe184b69	-0.14872517
67	0x3d2e3377	0.04252955
68	0xbf7b9105	-0.9826816
69	0xbd73716f	-0.05943435
70	0xbd8c0776	-0.068373606
71	0x3d4cf9ea	0.050043024
72	0xbdf355cf	-0.11881601
73	0xbe52b414	-0.20576507
74	0xbf0e6f75	-0.5563882
75	0xbf9b13de	-1.2115438
76	0xbd5b46ee	-0.05353444
77	0x3dfa47a5	0.12220696
78	0xbdaa0141	-0.083010204
79	0xbba6456e	-0.0050741946
80	0xbdba5996	-0.090991184
81	0xbe133015	-0.1437381
82	0xbc3a77d5	-0.011381109
83	0xbdc7cf4a	-0.09756334
84	0x3f658ae9	0.89665085
85	0xbda1aba1	-0.07894064
86	0x3e4c2ecf	0.19939731
87	0x3e8b1215	0.27162233
88	0xbb91a4f0	-0.004444711
89	0x3f0bd8bc	0.54627585
90	0xbd21968c	-0.039450213
91	0xbda406fc	-0.08009145
92	0x3e9268a6	0.28595465
93	0x3db71512	0.08939566
94	0xbdbbc38b	-0.09168156
95	0xbd17fbf7	-0.037105527
96	0xbc5cced3	-0.013477045
97	0xbd997bdd	-0.07494328
98	0xbe0a187e	-0.13485906
99	0x3d836461	0.0641563
100	0xbdf3d9c3	-0.11906769
101	0xbc231c20	-0.009955436
102	0x3f0a5f2e	0.5405148
103	0xbf8adc02	-1.0848391
104	0xbd9fcfa1	-0.07803274
105	0x3e645fa1	0.22302105
106	0xbdcaeac7	-0.099080615
107	0x3bdddfd3	0.0067710667
108	0xbd89793a	-0.06712575
109	0xbea2cbeb	-0.31796202
110	0xbd632c38	-0.055462092
111	0xbe513a26	-0.20432338
112	0x3caf9236	0.021432023
113	0x3da93aa9	0.08263142
114	0xbdb2b515	-0.08725945
115	0xbdda5dad	-0.106623985
116	0xbd3a2006	-0.045440696
117	0xbd321121	-0.043473367
118	0xbeea3113	-0.45740566
119	0x3f47c74e	0.7803849
120	0xbe4444d5	-0.19166882
121	0xbe7a8044	-0.24462992
122	0x3c95e958	0.018299744
123	0xbf14b575	-0.5808938
124	0xbdc675c0	-0.09690428
125	0xbf333129	-0.6999689
126	0xbe16f565	-0.14742048
127	0x3d2876ba	0.04112885

exit_layer.weight f4 [4, 128]
0	0xbeaf5fd8	-0.3425281
1	0xbee570cd	-0.44812623
2	0xbf868c2f	-1.0511531
3	0xbf870274	-1.0547624
4	0x3d13b8a2	0.03606475
5	0xbd7f5359	-0.062335346
6	0x3d800e63	0.06252744
7	0x3c867edc	0.016417913
8	0xbf43b4bf	-0.7644767
9	0xbf0f61b5	-0.56008464
10	0xbed9f28c	-0.4256786
11	0x3c6e6671	0.014550791
12	0x3d9d0700	0.07667351
13	0xc0003294	-2.003087
14	0x3e00e819	0.12588538
15	0xbfc05bd1	-1.502802
16	0xbf5a3520	-0.8523731
17	0x3fae8be3	1.363644
18	0x3f4b2567	0.79353946
19	0x3e1ab7d0	0.15109181
20	0xbf531f40	-0.8246956
21	0x3f5649f3	0.8370659
22	0x3fae077b	1.3596033
23	0x3d7e95b5	0.06215449
24	0xbfb05318	-1.3775358
25	0xbdcf96b0	-0.10136163
26	0xbf5bab76	-0.85808504
27	0xbf425857	-0.75916046
28	0xbd9cb598	-0.07651824
29	0x3d64bb6d	0.055842806
30	0xbea86c1c	-0.3289498
31	0xbd081364	-0.033221617
32	0xbe8bd9cc	-0.27314603
33	0xbf22097f	-0.6329574
34	0x4001944b	2.024676
35	0x3d121f08	0.035674125
36	0xbd8a19bc	-0.0674319
37	0xbf227717	-0.63462967
38	0xbea27bb4	-0.31735003
39	0x3b152560	0.0022757873
40	0xbf67f4e7	-0.90608066
41	0xbd3180b2	-0.043335624
42	0xbd168908	-0.036751777
43	0xbdc81e72	-0.09771432
44	0x3d21afc3	0.03947426
45	0xbd8fd245	-0.070225276
46	0xbd12b400	-0.035816193
47	0xbce4972a	-0.027904112
48	0xbf5b43a7	-0.85650104
49	0xbc3db94d	-0.011579824
50	0x3f58d092	0.84693253
51	0xbeaf2b89	-0.34212902
52	0xbe11d6ef	-0.14242147
53	0xbbe35a41	-0.0069382493
54	0xbeb9c311	-0.36281636
55	0xbf460d13	-0.773637
56	0x3fa1d2a4	1.2642407
57	0xbd7bdee1	-0.06149185
58	0xbf90cd19	-1.1312591
59	0x3f6bb716	0.9207624
60	0xbf35f23d	-0.7107275
61	0x3f3c1318	0.73466635
62	0x3ca0cce0	0.019628942
63	0xbc6180b1	-0.013763593
64	0x3d1de2ac	0.03854625
65	0xbcf50fd2	-0.02991477
66	0xbe80140b	-0.25015292
67	0xbd5986e8	-0.053107172
68	0x3f8643ba	1.0489419
69	0x3d9172b3	0.07101955
70	0x3c8e0a4c	0.017338894
71	0xbeaf2163	-0.3420516
72	0x39d5bf86	0.00040769222
73	0xbea93168	-0.33045506
74	0xbf055077	-0.52075905
75	0xbd7910dd	-0.060807098
76	0xbcd35046	-0.025795113
77	0xbf19f108	-0.6013341
78	0xbb2f0ce1	-0.0026710557
79	0x3ceeac18	0.029134795
80	0x3d7df4b6	0.062000953
81	0xbbe07d20	-0.0068508536
82	0x3ba3de75	0.005000884
83	0x3d68928a	0.056780376
84	0x3fda61b3	1.7061065
85	0xbec9fe75	-0.39451948
86	0xbf406e6c	-0.7516849
87	0xbe7aa2e7	-0.24476205
88	0xbc1ab8ba	-0.009443456
89	0xbf25e14a	-0.6479689
90	0x3cbd3c82	0.023100141
91	0xbdf7d522	-0.12101199
92	0xbf7a8402	-0.9785768
93	0xbf60ff36	-0.8788942
94	0xbc2d8dc4	-0.010592882
95	0xbf3df3c8	-0.74200106
96	0xbfbbdf0b	-1.4677442
97	0x3b9b8e20	0.004747167
98	0xbd67a21b	-0.05655108
99	0xbed761c7	-0.42066786
100	0x3d0cbde0	0.034360766
101	0x3d1a025e	0.037599914
102	0x3fab2e18	1.3373442
103	0x3f96c550	1.1778965
104	0x3d1f2a19	0.038858507
105	0xbf598360	-0.8496609
106	0x3cd9c3c4	0.026582606
107	0xbeccc413	-0.39993343
108	0x3d32051a	0.043461896
109	0x3f9e9249	1.2388393
110	0x3d30f210	0.0431996
111	0xbf71fe68	-0.9452882
112	0xbcfae5f6	-0.030627232
113	0xbf9526ee	-1.1652505
114	0xbec0010b	-0.37500796
115	0xbf071aea	-0.5277544
116	0x3d32c148	0.04364136
117	0xba8cc0c0	-0.0010738596
118	0x3f85dee7	1.0458649
119	0xbfbd4438	-1.4786444
120	0xbef179bd	-0.4716319
121	0xbefecade	-0.4976415
122	0x3db6cde2	0.08925988
123	0xc021d468	-2.5285892
124	0xb929e02b	-0.00016200605
125	0x3ed18451	0.40921262
126	0xbf6c2f6d	-0.92259866
127	0x3cd1acd3	0.025595104
128	0xbecdcd88	-0.4019587
129	0xbeeeb4bf	-0.46622273
130	0xbfb67174	-1.4253373
131	0xbf872e77	-1.0561055
132	0x3bb10c99	0.005403113
133	0xbcd2fcb4	-0.025755264
134	0xbd2ef027	-0.042709496
135	0xbc9000f2	-0.017578576
136	0xbf497861	-0.7869931
137	0xbef6821d	-0.48146144
138	0xbeaa21e9	-0.33228996
139	0x3d302456	0.043003403
140	0xbce4325d	-0.027856046
141	0xc000293d	-2.002517
142	0xbcd55341	-0.026040675
143	0xbf96a01d	-1.1767613
144	0xbf2527cc	-0.6451385
145	0x3fac8e09	1.3480846
146	0x3f938f7b	1.1528162
147	0xbf3e5a6f	-0.7435674
148	0xbf4432af	-0.7663984
149	0x3f52acb6	0.82294786
150	0x3fac8790	1.347887
151	0x3e3af445	0.18257244
152	0xbfbbe484	-1.4679112
153	0xbdad904a	-0.084747866
154	0xbf576dc4	-0.84151864
155	0xbf081e5e	-0.53171337
156	0xbd5525e7	-0.0520381
157	0x3d37b00b	0.044845622
158	0xbed91fc3	-0.42407045
159	0x3bcd8f4b	0.0062731854
160	0xbefb1bc1	-0.49044612
161	0xbf98bfb0	-1.1933498
162	0x40057022	2.084969
163	0xbd574e1f	-0.052564736
164	0x3aca360d	0.0015427485
165	0xbef21fec	-0.4728998
166	0xbee65a1b	-0.4499062
167	0x3d26ca8a	0.0407205
168	0xbf37df57	-0.71825165
169	0x3d243dd3	0.040098023
170	0x3c822955	0.01588885
171	0x3ebd4079	0.3696325
172	0xbd18a78e	-0.037269168
173	0x3d32a24f	0.04361182
174	0x3bf65c89	0.0075183553
175	0x3d0afc3b	0.033931952
176	0xbf95bbc9	-1.1697932
177	0x3d48d4c5	0.049031038
178	0xbcc7b0dd	-0.024376327
179	0xbee1e7ff	-0.4412231
180	0xbea18ba7	-0.3155186
181	0x3d4edb89	0.050502334
182	0xbeb43cda	-0.35202676
183	0xbf302cae	-0.68818176
184	0x3fa773ee	1.3082254
185	0x3c5b8218	0.013397716
186	0xbf945b89	-1.1590434
187	0x3f7cd209	0.9875799
188	0xbf3887e6	-0.72082365
189	0x3fa26ea1	1.2690011
190	0xbce22f2a	-0.02761038
191	0xbbcf0aa9	-0.0063184095
192	0x3d23c39b	0.039981466
193	0x3d3f0405	0.046634693
194	0xbe897840	-0.26849556
195	0xba9daf8b	-0.0012030465
196	0x3fb66e4c	1.425241
197	0xbd00ade7	-0.031415846
198	0x3cd76b1e	0.026296195
199	0xbe8bb0fb	-0.27283463
200	0x3d623c6d	0.055233408
201	0xbea18f01	-0.31554416
202	0xbf267212	-0.6501781
203	0xbdc5b0a5	-0.09652833
204	0xbd021727	-0.03176036
205	0xbf031b1b	-0.51213235
206	0xbdb376fc	-0.08762929
207	0x3d32225d	0.043489803
208	0x3ca9e4be	0.020738956
209	0x3d0de990	0.03464657
210	0x3d755690	0.059897006
211	0x3ca9bae2	0.020718995
212	0x3fce19b4	1.6101594
213	0xbe9bdda6	-0.30442542
214	0xbf1de30d	-0.61674577
215	0xbe27cdac	-0.16387051
216	0x3d2af9b2	0.041742034
217	0xbf3a29ad	-0.7271984
218	0x3dc95689	0.098309584
219	0x3baa4bac	0.005197009
220	0xbf8cde81	-1.1005403
221	0xbe8e14cd	-0.27750245
222	0xbc3d86ae	-0.011567755
223	0xbf05e25c	-0.5229852
224	0xbfb6aed4	-1.4272103
225	0xbd12bc98	-0.03582439
226	0xbb95466c	-0.004555514
227	0xbeacfb6f	-0.3378558
228	0x3d9595d1	0.07303966
229	0xbd18add6	-0.037275158
230	0x3fa03492	1.2516043
231	0xbfa063ff	-1.2530516
232	0xbd362dd4	-0.0444773
233	0xbf4e31c8	-0.8054471
234	0x3d8d58bb	0.069016896
235	0xbeb2e823	-0.3494273
236	0x3d924458	0.07141942
237	0x3f980500	1.1876526
238	0xba8044d0	-0.0009786133
239	0xbf97881b	-1.1838411
240	0x3d88bcab	0.066766106
241	0xbf7a6968	-0.9781709
242	0xbe9efe59	-0.31053427
243	0xbf41de57	-0.7572989
244	0x3a4d97cd	0.00078427495
245	0xbd0205c9	-0.0317438
246	0x3f8bece9	1.0931674
247	0xbfbe63d1	-1.4874212
248	0xbec5dee6	-0.3864662
249	0xbec6da8d	-0.38838616
250	0xbda4cf8a	-0.080473974
251	0xc0174735	-2.3637211
252	0xbc32cd80	-0.010913253
253	0x3faa9d1e	1.3329198
254	0xbf8b6f44	-1.089333
255	0xbc02db85	-0.007986908

exit_layer.bias f4 [4]
0	0x3ef06ad8	0.46956515
1	0x3e98262f	0.29716632
2	0x3f58b6d1	0.84653956
3	0x3e8815da	0.2657917
